…
epoch_14_loss:  … I 2022-11-13 10:55:35,324] Trial 199 finished with value: 0.9360120837358005 and parameters: {'optimizer': 'Adam', 'lr': 0.0008271620750548044, 'n_layers': 1, 'n_units_l0': 5}. Best is trial 128 with value: 0.8277037370898573.
Study statistics: 
  Number of finished trials:  200
  Number of pruned trials:  0
  Number of complete trials:  200
Best trial:
  Value:  0.8277037370898573
  Params: 
    optimizer: Adam
    lr: 4.85950876791952e-05
    n_layers: 1
    n_units_l0: 5
MSE for AE:  0.08089752443084734
RR for AE:  0.9999685910089313
[I 2022-11-13 10:55:39,934] A new study created in memory with name: no-name-8679844f-e8d5-4931-a4cf-c5dc37c9ff01
MSE for AE:  1.8148666480906033
RR for AE:  0.9993525033207467
DAE is selected
Optimizing DAE
Sequential(
  (0): Linear(in_features=5, out_features=5, bias=True)
  (1): ReLU()
  (2): Linear(in_features=5, out_features=2, bias=True)
  (3): ReLU()
)
Sequential(
  (0): Linear(in_features=2, out_features=5, bias=True)
  (1): ReLU()
  (2): Linear(in_features=5, out_features=5, bias=True)
)
epoch: 0
epoch_0_loss:  1.0955449155216515
epoch: 1
epoch_1_loss:  1.0955449155216515
epoch: 2
epoch_2_loss:  1.0955449155216515
epoch: 3
epoch_3_loss:  1.0955449155216515
epoch: 4
epoch_4_loss:  1.0955449155216515
epoch: 5
epoch_5_loss:  1.0955449155216515
epoch: 6
epoch_6_loss:  1.0955449155216515
epoch: 7
epoch_7_loss:  1.0955449155216515
epoch: 8
epoch_8_loss:  1.0955449155216515
epoch: 9
epoch_9_loss:  1.0955449155216515
epoch: 10
epoch_10_loss:  1.0955449155216515
epoch: 11
epoch_11_loss:  1.0955449155216515
epoch: 12
epoch_12_loss:  1.0955449155216515
epoch: 13
epoch_13_loss:  1.0955449155216515
epoch: 14
epoch_14_loss:  … Sequential(
  (0): Linear(in_features=5, out_features=4, bias=True)
  (1): ReLU()
  (2): Linear(in_features=4, out_features=5, bias=True)
  (3): ReLU()
  (4): Linear(in_features=5, out_features=5, bias=True)
  (5): ReLU()
)
Sequential(
  (0): Linear(in_features=5, out_features=5, bias=True)
  (1): ReLU()
  (2): Linear(in_features=5, out_features=4, bias=True)
  (3): ReLU()
  (4): Linear(in_features=4, out_features=5, bias=True)
)
epoch: 0
[I 2022-11-13 10:56:36,498] Trial 0 finished with value: 1.0955449155216515 and parameters: {'optimizer': 'Adam', 'lr': 2.2239213751236625e-05, 'n_layers': 2, 'n_units_l0': 5, 'n_units_l1': 2}. Best is trial 0 with value: 1.0955449155216515.
epoch_0_loss:  1.0940385883865975
epoch: 1
epoch_1_loss:  1.0940385883865975
epoch: 2
epoch_2_loss:  1.0940385883865975
…
epoch_6_loss:  1.085013307419245
epoch: 7
epoch_7_loss:  1.085013307419245
epoch: 8
epoch_8_loss:  1.085013307419245
epoch: 9
epoch_9_loss:  1.085013307419245
epoch: 10
epoch_10_loss:  1.085013307419245
epoch: 11
epoch_11_loss:  1.085013307419245
epoch: 12
epoch_12_loss:  1.085013307419245
epoch: 13
epoch_13_loss:  1.085013307419245
epoch: 14
epoch_14_loss:  … I 2022-11-13 10:59:26,024] Trial 3 finished with value: 1.085013307419245 and parameters: {'optimizer': 'Adam', 'lr': 5.2485837784147106e-05, 'n_layers': 2, 'n_units_l0': 5, 'n_units_l1': 4}. Best is trial 3 with value: 1.085013307419245.
Sequential(
  (0): Linear(in_features=5, out_features=4, bias=True)
  (1): ReLU()
  (2): Linear(in_features=4, out_features=5, bias=True)
  (3): ReLU()
)
Sequential(
  (0): Linear(in_features=5, out_features=4, bias=True)
  (1): ReLU()
  (2): Linear(in_features=4, out_features=5, bias=True)
)
epoch: 0
epoch_0_loss:  1.2607094119765851
epoch: 1
epoch_1_loss:  1.2607094119765851
epoch: 2
epoch_2_loss:  1.2607094119765851
epoch: 3
epoch_3_loss:  1.2607094119765851
epoch: 4
epoch_4_loss:  1.2607094119765851
epoch: 5
epoch_5_loss:  1.2607094119765851
epoch: 6
epoch_6_loss:  1.2607094119765851
epoch: 7
epoch_7_loss:  1.2607094119765851
epoch: 8
epoch_8_loss:  1.2607094119765851
epoch: 9
epoch_9_loss:  1.2607094119765851
epoch: 10
epoch_10_loss:  1.2607094119765851
epoch: 11
epoch_11_loss:  1.2607094119765851
epoch: 12
epoch_12_loss:  1.2607094119765851
epoch: 13
epoch_13_loss:  1.2607094119765851
epoch: 14
epoch_14_loss:  … Sequential(
  (0): Linear(in_features=5, out_features=5, bias=True)
  (1): ReLU()
)
Sequential(
  (0): Linear(in_features=5, out_features=5, bias=True)
)
epoch: 0
[I 2022-11-13 11:00:22,464] Trial 4 finished with value: 1.2607094119765851 and parameters: {'optimizer': 'Adam', 'lr': 3.7447861659637436e-05, 'n_layers': 2, 'n_units_l0': 4, 'n_units_l1': 5}. Best is trial 3 with value: 1.085013307419245.
epoch_0_loss:  1.1082771972481091
epoch: 1
epoch_1_loss:  1.1082771972481091
epoch: 2
epoch_2_loss:  1.1082771972481091
…
epoch_6_loss:  1.1036081584214796
epoch: 7
epoch_7_loss:  1.1036081584214796
epoch: 8
epoch_8_loss:  1.1036081584214796
epoch: 9
epoch_9_loss:  1.1036081584214796
epoch: 10
epoch_10_loss:  1.1036081584214796
epoch: 11
epoch_11_loss:  1.1036081584214796
epoch: 12
epoch_12_loss:  1.1036081584214796
epoch: 13
epoch_13_loss:  1.1036081584214796
epoch: 14
epoch_14_loss:  … I 2022-11-13 11:02:46,523] Trial 6 finished with value: 1.1036081584214796 and parameters: {'optimizer': 'Adam', 'lr': 8.112227020948102e-05, 'n_layers': 1, 'n_units_l0': 5}. Best is trial 3 with value: 1.085013307419245.
Sequential(
  (0): Linear(in_features=5, out_features=5, bias=True)
  (1): ReLU()
)
Sequential(
  (0): Linear(in_features=5, out_features=5, bias=True)
)
epoch: 0
epoch_0_loss:  1.0882488468591358
epoch: 1
epoch_1_loss:  1.0882488468591358
epoch: 2
epoch_2_loss:  1.0882488468591358
epoch: 3
epoch_3_loss:  1.0882488468591358
epoch: 4
epoch_4_loss:  1.0882488468591358
epoch: 5
epoch_5_loss:  1.0882488468591358
epoch: 6
epoch_6_loss:  1.0882488468591358
epoch: 7
epoch_7_loss:  1.0882488468591358
epoch: 8
epoch_8_loss:  1.0882488468591358
epoch: 9
epoch_9_loss:  1.0882488468591358
epoch: 10
epoch_10_loss:  1.0882488468591358
epoch: 11
epoch_11_loss:  1.0882488468591358
epoch: 12
epoch_12_loss:  1.0882488468591358
epoch: 13
epoch_13_loss:  1.0882488468591358
epoch: 14
epoch_14_loss:  … Sequential(
  (0): Linear(in_features=5, out_features=3, bias=True)
  (1): ReLU()
  (2): Linear(in_features=3, out_features=2, bias=True)
  (3): ReLU()
)
Sequential(
  (0): Linear(in_features=2, out_features=3, bias=True)
  (1): ReLU()
  (2): Linear(in_features=3, out_features=5, bias=True)
)
epoch: 0
[I 2022-11-13 11:03:30,472] Trial 7 finished with value: 1.0882488468591358 and parameters: {'optimizer': 'Adam', 'lr': 2.6865864971675764e-05, 'n_layers': 1, 'n_units_l0': 5}. Best is trial 3 with value: 1.085013307419245.
epoch_0_loss:  1.1728291915804232
epoch: 1
epoch_1_loss:  1.1728291915804232
epoch: 2
epoch_2_loss:  1.1728291915804232
epoch: 3
…
epoch_6_loss:  1.2984478614519674
epoch: 7
epoch_7_loss:  1.2984478614519674
epoch: 8
epoch_8_loss:  1.2984478614519674
epoch: 9
epoch_9_loss:  1.2984478614519674
epoch: 10
epoch_10_loss:  1.2984478614519674
epoch: 11
epoch_11_loss:  1.2984478614519674
epoch: 12
epoch_12_loss:  1.2984478614519674
epoch: 13
epoch_13_loss:  1.2984478614519674
epoch: 14
epoch_14_loss:  … I 2022-11-13 11:05:22,756] Trial 9 finished with value: 1.2984478614519674 and parameters: {'optimizer': 'Adam', 'lr': 5.105644614412726e-05, 'n_layers': 2, 'n_units_l0': 1, 'n_units_l1': 5}. Best is trial 3 with value: 1.085013307419245.
Sequential(
  (0): Linear(in_features=5, out_features=2, bias=True)
  (1): ReLU()
  (2): Linear(in_features=2, out_features=3, bias=True)
  (3): ReLU()
  (4): Linear(in_features=3, out_features=1, bias=True)
  (5): ReLU()
)
Sequential(
  (0): Linear(in_features=1, out_features=3, bias=True)
  (1): ReLU()
  (2): Linear(in_features=3, out_features=2, bias=True)
  (3): ReLU()
  (4): Linear(in_features=2, out_features=5, bias=True)
)
epoch: 0
epoch_0_loss:  1.1156555680672577
epoch: 1
epoch_1_loss:  1.1156555680672577
epoch: 2
epoch_2_loss:  1.1156555680672577
epoch: 3
epoch_3_loss:  1.1156555680672577
epoch: 4
epoch_4_loss:  1.1156555680672577
epoch: 5
epoch_5_loss:  1.1156555680672577
epoch: 6
epoch_6_loss:  1.1156555680672577
epoch: 7
epoch_7_loss:  1.1156555680672577
epoch: 8
epoch_8_loss:  1.1156555680672577
…
epoch_6_loss:  1.0418190990257263
epoch: 7
epoch_7_loss:  1.0418190990257263
epoch: 8
epoch_8_loss:  1.0418190990257263
epoch: 9
epoch_9_loss:  1.0418190990257263
epoch: 10
epoch_10_loss:  1.0418190990257263
epoch: 11
epoch_11_loss:  1.0418190990257263
epoch: 12
epoch_12_loss:  1.0418190990257263
epoch: 13
epoch_13_loss:  1.0418190990257263
epoch: 14
epoch_14_loss:  … I 2022-11-13 11:07:15,271] Trial 11 finished with value: 1.0418190990257263 and parameters: {'optimizer': 'Adam', 'lr': 0.00019646626733930956, 'n_layers': 1, 'n_units_l0': 4}. Best is trial 11 with value: 1.0418190990257263.
Sequential(
  (0): Linear(in_features=5, out_features=4, bias=True)
  (1): ReLU()
  (2): Linear(in_features=4, out_features=4, bias=True)
  (3): ReLU()
  (4): Linear(in_features=4, out_features=3, bias=True)
  (5): ReLU()
)
Sequential(
  (0): Linear(in_features=3, out_features=4, bias=True)
  (1): ReLU()
  (2): Linear(in_features=4, out_features=4, bias=True)
  (3): ReLU()
  (4): Linear(in_features=4, out_features=5, bias=True)
)
epoch: 0
epoch_0_loss:  1.03902727773544
epoch: 1
epoch_1_loss:  1.03902727773544
epoch: 2
epoch_2_loss:  1.03902727773544
epoch: 3
epoch_3_loss:  1.03902727773544
epoch: 4
epoch_4_loss:  1.03902727773544
epoch: 5
epoch_5_loss:  1.03902727773544
epoch: 6
epoch_6_loss:  1.03902727773544
epoch: 7
epoch_7_loss:  1.03902727773544
epoch: 8
epoch_8_loss:  1.03902727773544
epoch: 9
epoch_9_loss:  1.03902727773544
epoch: 10
epoch_10_loss:  1.03902727773544
epoch: 11
epoch_11_loss:  1.03902727773544
epoch: 12
epoch_12_loss:  1.03902727773544
epoch: 13
epoch_13_loss:  1.03902727773544
epoch: 14
epoch_14_loss:  … I 2022-11-13 11:08:23,909] Trial 12 finished with value: 1.03902727773544 and parameters: {'optimizer': 'Adam', 'lr': 0.0002152781160909216, 'n_layers': 3, 'n_units_l0': 4, 'n_units_l1': 4, 'n_units_l2': 3}. Best is trial 12 with value: 1.03902727773544.
Sequential(
  (0): Linear(in_features=5, out_features=3, bias=True)
  (1): ReLU()
  (2): Linear(in_features=3, out_features=1, bias=True)
  (3): ReLU()
  (4): Linear(in_features=1, out_features=3, bias=True)
  (5): ReLU()
)
Sequential(
  (0): Linear(in_features=3, out_features=1, bias=True)
  (1): ReLU()
  (2): Linear(in_features=1, out_features=3, bias=True)
  (3): ReLU()
  (4): Linear(in_features=3, out_features=5, bias=True)
)
epoch: 0
epoch_0_loss:  1.1119593184625716
epoch: 1
epoch_1_loss:  1.1119593184625716
epoch: 2
epoch_2_loss:  1.1119593184625716
epoch: 3
epoch_3_loss:  1.1119593184625716
epoch: 4
epoch_4_loss:  1.1119593184625716
epoch: 5
epoch_5_loss:  1.1119593184625716
epoch: 6
epoch_6_loss:  1.1119593184625716
epoch: 7
epoch_7_loss:  1.1119593184625716
epoch: 8
epoch_8_loss:  1.1119593184625716
epoch: 9
epoch_9_loss:  1.1119593184625716
epoch: 10
epoch_10_loss:  1.1119593184625716
epoch: 11
epoch_11_loss:  1.1119593184625716
epoch: 12
epoch_12_loss:  1.1119593184625716
epoch: 13
epoch_13_loss:  1.1119593184625716
epoch: 14
epoch_14_loss:  … I 2022-11-13 11:09:32,709] Trial 13 finished with value: 1.1119593184625716 and parameters: {'optimizer': 'Adam', 'lr': 0.00020342987527034048, 'n_layers': 3, 'n_units_l0': 3, 'n_units_l1': 1, 'n_units_l2': 3}. Best is trial 12 with value: 1.03902727773544.
Sequential(
  (0): Linear(in_features=5, out_features=4, bias=True)
  (1): ReLU()
  (2): Linear(in_features=4, out_features=3, bias=True)
  (3): ReLU()
  (4): Linear(in_features=3, out_features=3, bias=True)
  (5): ReLU()
)
Sequential(
  (0): Linear(in_features=3, out_features=3, bias=True)
  (1): ReLU()
  (2): Linear(in_features=3, out_features=4, bias=True)
  (3): ReLU()
  (4): Linear(in_features=4, out_features=5, bias=True)
)
epoch: 0
epoch_0_loss:  1.097584100555158
epoch: 1
epoch_1_loss:  1.097584100555158
epoch: 2
epoch_2_loss:  1.097584100555158
epoch: 3
epoch_3_loss:  1.097584100555158
epoch: 4
epoch_4_loss:  1.097584100555158
epoch: 5
epoch_5_loss:  1.097584100555158
epoch: 6
epoch_6_loss:  1.097584100555158
epoch: 7
epoch_7_loss:  1.097584100555158
epoch: 8
epoch_8_loss:  1.097584100555158
…
epoch_6_loss:  1.3665611730038012
epoch: 7
epoch_7_loss:  1.3665611730038012
epoch: 8
epoch_8_loss:  1.3665611730038012
epoch: 9
epoch_9_loss:  1.3665611730038012
epoch: 10
epoch_10_loss:  1.3665611730038012
epoch: 11
epoch_11_loss:  1.3665611730038012
epoch: 12
epoch_12_loss:  1.3665611730038012
epoch: 13
epoch_13_loss:  1.3665611730038012
epoch: 14
epoch_14_loss:  … I 2022-11-13 11:11:25,080] Trial 15 finished with value: 1.3665611730038012 and parameters: {'optimizer': 'Adam', 'lr': 0.00013013918451522274, 'n_layers': 1, 'n_units_l0': 4}. Best is trial 12 with value: 1.03902727773544.
Sequential(
  (0): Linear(in_features=5, out_features=2, bias=True)
  (1): ReLU()
  (2): Linear(in_features=2, out_features=4, bias=True)
  (3): ReLU()
  (4): Linear(in_features=4, out_features=5, bias=True)
  (5): ReLU()
)
Sequential(
  (0): Linear(in_features=5, out_features=4, bias=True)
  (1): ReLU()
  (2): Linear(in_features=4, out_features=2, bias=True)
  (3): ReLU()
  (4): Linear(in_features=2, out_features=5, bias=True)
)
epoch: 0
epoch_0_loss:  1.3175651916075581
epoch: 1
epoch_1_loss:  1.3175651916075581
epoch: 2
epoch_2_loss:  1.3175651916075581
epoch: 3
epoch_3_loss:  1.3175651916075581
epoch: 4
epoch_4_loss:  1.3175651916075581
epoch: 5
epoch_5_loss:  1.3175651916075581
epoch: 6
epoch_6_loss:  1.3175651916075581
epoch: 7
epoch_7_loss:  1.3175651916075581
epoch: 8
epoch_8_loss:  1.3175651916075581
…
epoch_6_loss:  1.1911403162903547
epoch: 7
epoch_7_loss:  1.1911403162903547
epoch: 8
epoch_8_loss:  1.1911403162903547
epoch: 9
epoch_9_loss:  1.1911403162903547
epoch: 10
epoch_10_loss:  1.1911403162903547
epoch: 11
epoch_11_loss:  1.1911403162903547
epoch: 12
epoch_12_loss:  1.1911403162903547
epoch: 13
epoch_13_loss:  1.1911403162903547
epoch: 14
epoch_14_loss:  … I 2022-11-13 11:14:26,545] Trial 18 finished with value: 1.1911403162903547 and parameters: {'optimizer': 'Adam', 'lr': 0.00036687961198486743, 'n_layers': 2, 'n_units_l0': 2, 'n_units_l1': 4}. Best is trial 17 with value: 1.0385270087308953.
Sequential(
  (0): Linear(in_features=5, out_features=3, bias=True)
  (1): ReLU()
  (2): Linear(in_features=3, out_features=4, bias=True)
  (3): ReLU()
  (4): Linear(in_features=4, out_features=1, bias=True)
  (5): ReLU()
)
Sequential(
  (0): Linear(in_features=1, out_features=4, bias=True)
  (1): ReLU()
  (2): Linear(in_features=4, out_features=3, bias=True)
  (3): ReLU()
  (4): Linear(in_features=3, out_features=5, bias=True)
)
epoch: 0
epoch_0_loss:  1.3204657229373467
epoch: 1
epoch_1_loss:  1.3204657229373467
epoch: 2
epoch_2_loss:  1.3204657229373467
epoch: 3
epoch_3_loss:  1.3204657229373467
epoch: 4
epoch_4_loss:  1.3204657229373467
epoch: 5
epoch_5_loss:  1.3204657229373467
epoch: 6
epoch_6_loss:  1.3204657229373467
epoch: 7
epoch_7_loss:  1.3204657229373467
epoch: 8
epoch_8_loss:  1.3204657229373467
…
epoch_6_loss:  1.0670498671676223
epoch: 7
epoch_7_loss:  1.0670498671676223
epoch: 8
epoch_8_loss:  1.0670498671676223
epoch: 9
epoch_9_loss:  1.0670498671676223
epoch: 10
epoch_10_loss:  1.0670498671676223
epoch: 11
epoch_11_loss:  1.0670498671676223
epoch: 12
epoch_12_loss:  1.0670498671676223
epoch: 13
epoch_13_loss:  1.0670498671676223
epoch: 14
epoch_14_loss:  … I 2022-11-13 11:17:15,653] Trial 21 finished with value: 1.0670498671676223 and parameters: {'optimizer': 'Adam', 'lr': 0.0003113974857169823, 'n_layers': 1, 'n_units_l0': 4}. Best is trial 17 with value: 1.0385270087308953.
Sequential(
  (0): Linear(in_features=5, out_features=3, bias=True)
  (1): ReLU()
  (2): Linear(in_features=3, out_features=4, bias=True)
  (3): ReLU()
  (4): Linear(in_features=4, out_features=4, bias=True)
  (5): ReLU()
)
Sequential(
  (0): Linear(in_features=4, out_features=4, bias=True)
  (1): ReLU()
  (2): Linear(in_features=4, out_features=3, bias=True)
  (3): ReLU()
  (4): Linear(in_features=3, out_features=5, bias=True)
)
epoch: 0
epoch_0_loss:  1.1753847244074629
epoch: 1
epoch_1_loss:  1.1753847244074629
epoch: 2
epoch_2_loss:  1.1753847244074629
epoch: 3
epoch_3_loss:  1.1753847244074629
epoch: 4
epoch_4_loss:  1.1753847244074629
epoch: 5
epoch_5_loss:  1.1753847244074629
epoch: 6
epoch_6_loss:  1.1753847244074629
epoch: 7
epoch_7_loss:  1.1753847244074629
epoch: 8
epoch_8_loss:  1.1753847244074629
…
epoch_6_loss:  1.1116015324597925
epoch: 7
epoch_7_loss:  1.1116015324597925
epoch: 8
epoch_8_loss:  1.1116015324597925
epoch: 9
epoch_9_loss:  1.1116015324597925
epoch: 10
epoch_10_loss:  1.1116015324597925
epoch: 11
epoch_11_loss:  1.1116015324597925
epoch: 12
epoch_12_loss:  1.1116015324597925
epoch: 13
epoch_13_loss:  1.1116015324597925
epoch: 14
epoch_14_loss:  … I 2022-11-13 11:24:46,927] Trial 29 finished with value: 1.1116015324597925 and parameters: {'optimizer': 'Adam', 'lr': 0.0005670883804775172, 'n_layers': 2, 'n_units_l0': 4, 'n_units_l1': 4}. Best is trial 26 with value: 1.034786592180601.
Sequential(
  (0): Linear(in_features=5, out_features=3, bias=True)
  (1): ReLU()
  (2): Linear(in_features=3, out_features=3, bias=True)
  (3): ReLU()
  (4): Linear(in_features=3, out_features=2, bias=True)
  (5): ReLU()
)
Sequential(
  (0): Linear(in_features=2, out_features=3, bias=True)
  (1): ReLU()
  (2): Linear(in_features=3, out_features=3, bias=True)
  (3): ReLU()
  (4): Linear(in_features=3, out_features=5, bias=True)
)
epoch: 0
epoch_0_loss:  1.0552109160975094
epoch: 1
epoch_1_loss:  1.0552109160975094
epoch: 2
epoch_2_loss:  1.0552109160975094
epoch: 3
epoch_3_loss:  1.0552109160975094
epoch: 4
epoch_4_loss:  1.0552109160975094
epoch: 5
epoch_5_loss:  1.0552109160975094
epoch: 6
epoch_6_loss:  1.0552109160975094
epoch: 7
epoch_7_loss:  1.0552109160975094
epoch: 8
epoch_8_loss:  1.0552109160975094
…
epoch_6_loss:  1.1336629891745147
epoch: 7
epoch_7_loss:  1.1336629891745147
epoch: 8
epoch_8_loss:  1.1336629891745147
epoch: 9
epoch_9_loss:  1.1336629891745147
epoch: 10
epoch_10_loss:  1.1336629891745147
epoch: 11
epoch_11_loss:  1.1336629891745147
epoch: 12
epoch_12_loss:  1.1336629891745147
epoch: 13
epoch_13_loss:  1.1336629891745147
epoch: 14
epoch_14_loss:  … I 2022-11-13 11:33:13,561] Trial 38 finished with value: 1.1336629891745147 and parameters: {'optimizer': 'Adam', 'lr': 4.625839157991538e-05, 'n_layers': 1, 'n_units_l0': 5}. Best is trial 26 with value: 1.034786592180601.
Sequential(
  (0): Linear(in_features=5, out_features=3, bias=True)
  (1): ReLU()
  (2): Linear(in_features=3, out_features=4, bias=True)
  (3): ReLU()
  (4): Linear(in_features=4, out_features=2, bias=True)
  (5): ReLU()
)
Sequential(
  (0): Linear(in_features=2, out_features=4, bias=True)
  (1): ReLU()
  (2): Linear(in_features=4, out_features=3, bias=True)
  (3): ReLU()
  (4): Linear(in_features=3, out_features=5, bias=True)
)
epoch: 0
epoch_0_loss:  1.0674944669095623
epoch: 1
epoch_1_loss:  1.0674944669095623
epoch: 2
epoch_2_loss:  1.0674944669095623
epoch: 3
epoch_3_loss:  1.0674944669095623
epoch: 4
epoch_4_loss:  1.0674944669095623
epoch: 5
epoch_5_loss:  1.0674944669095623
epoch: 6
epoch_6_loss:  1.0674944669095623
epoch: 7
epoch_7_loss:  1.0674944669095623
epoch: 8
epoch_8_loss:  1.0674944669095623
…
epoch_6_loss:  1.1512872234484464
epoch: 7
epoch_7_loss:  1.1512872234484464
epoch: 8
epoch_8_loss:  1.1512872234484464
epoch: 9
epoch_9_loss:  1.1512872234484464
epoch: 10
epoch_10_loss:  1.1512872234484464
epoch: 11
epoch_11_loss:  1.1512872234484464
epoch: 12
epoch_12_loss:  1.1512872234484464
epoch: 13
epoch_13_loss:  1.1512872234484464
epoch: 14
epoch_14_loss:  … I 2022-11-13 11:40:44,624] Trial 46 finished with value: 1.1512872234484464 and parameters: {'optimizer': 'Adam', 'lr': 0.000417838264367152, 'n_layers': 2, 'n_units_l0': 5, 'n_units_l1': 4}. Best is trial 26 with value: 1.034786592180601.
Sequential(
  (0): Linear(in_features=5, out_features=4, bias=True)
  (1): ReLU()
  (2): Linear(in_features=4, out_features=4, bias=True)
  (3): ReLU()
  (4): Linear(in_features=4, out_features=2, bias=True)
  (5): ReLU()
)
Sequential(
  (0): Linear(in_features=2, out_features=4, bias=True)
  (1): ReLU()
  (2): Linear(in_features=4, out_features=4, bias=True)
  (3): ReLU()
  (4): Linear(in_features=4, out_features=5, bias=True)
)
epoch: 0
epoch_0_loss:  1.0821091425612943
epoch: 1
epoch_1_loss:  1.0821091425612943
epoch: 2
epoch_2_loss:  1.0821091425612943
epoch: 3
epoch_3_loss:  1.0821091425612943
epoch: 4
epoch_4_loss:  1.0821091425612943
epoch: 5
epoch_5_loss:  1.0821091425612943
epoch: 6
epoch_6_loss:  1.0821091425612943
epoch: 7
epoch_7_loss:  1.0821091425612943
epoch: 8
epoch_8_loss:  1.0821091425612943
…
epoch_6_loss:  1.2631033297130816
epoch: 7
epoch_7_loss:  1.2631033297130816
epoch: 8
epoch_8_loss:  1.2631033297130816
epoch: 9
epoch_9_loss:  1.2631033297130816
epoch: 10
epoch_10_loss:  1.2631033297130816
epoch: 11
epoch_11_loss:  1.2631033297130816
epoch: 12
epoch_12_loss:  1.2631033297130816
epoch: 13
epoch_13_loss:  1.2631033297130816
epoch: 14
epoch_14_loss:  … I 2022-11-13 11:43:33,951] Trial 49 finished with value: 1.2631033297130816 and parameters: {'optimizer': 'Adam', 'lr': 7.969548325106079e-05, 'n_layers': 1, 'n_units_l0': 4}. Best is trial 26 with value: 1.034786592180601.
Sequential(
  (0): Linear(in_features=5, out_features=2, bias=True)
  (1): ReLU()
  (2): Linear(in_features=2, out_features=3, bias=True)
  (3): ReLU()
  (4): Linear(in_features=3, out_features=4, bias=True)
  (5): ReLU()
)
Sequential(
  (0): Linear(in_features=4, out_features=3, bias=True)
  (1): ReLU()
  (2): Linear(in_features=3, out_features=2, bias=True)
  (3): ReLU()
  (4): Linear(in_features=2, out_features=5, bias=True)
)
epoch: 0
epoch_0_loss:  1.167939089288196
epoch: 1
epoch_1_loss:  1.167939089288196
epoch: 2
epoch_2_loss:  1.167939089288196
epoch: 3
epoch_3_loss:  1.167939089288196
epoch: 4
epoch_4_loss:  1.167939089288196
epoch: 5
epoch_5_loss:  1.167939089288196
epoch: 6
epoch_6_loss:  1.167939089288196
epoch: 7
epoch_7_loss:  1.167939089288196
epoch: 8
epoch_8_loss:  1.167939089288196
…
epoch: 7
epoch_7_loss:  1.061816350299238
epoch: 8
epoch_8_loss:  1.061816350299238
epoch: 9
epoch_9_loss:  1.061816350299238
epoch: 10
epoch_10_loss:  1.061816350299238
epoch: 11
epoch_11_loss:  1.061816350299238
epoch: 12
epoch_12_loss:  1.061816350299238
epoch: 13
epoch_13_loss:  1.061816350299238
epoch: 14
epoch_14_loss:  … I 2022-11-13 11:45:51,719] Trial 51 finished with value: 1.061816350299238 and parameters: {'optimizer': 'Adam', 'lr': 6.379298787232866e-05, 'n_layers': 3, 'n_units_l0': 3, 'n_units_l1': 3, 'n_units_l2': 2}. Best is trial 26 with value: 1.034786592180601.
Sequential(
  (0): Linear(in_features=5, out_features=3, bias=True)
  (1): ReLU()
  (2): Linear(in_features=3, out_features=2, bias=True)
  (3): ReLU()
  (4): Linear(in_features=2, out_features=2, bias=True)
  (5): ReLU()
)
Sequential(
  (0): Linear(in_features=2, out_features=2, bias=True)
  (1): ReLU()
  (2): Linear(in_features=2, out_features=3, bias=True)
  (3): ReLU()
  (4): Linear(in_features=3, out_features=5, bias=True)
)
epoch: 0
epoch_0_loss:  1.092167511049948
epoch: 1
epoch_1_loss:  1.092167511049948
epoch: 2
epoch_2_loss:  1.092167511049948
epoch: 3
epoch_3_loss:  1.092167511049948
epoch: 4
epoch_4_loss:  1.092167511049948
epoch: 5
epoch_5_loss:  1.092167511049948
epoch: 6
epoch_6_loss:  1.092167511049948
epoch: 7
epoch_7_loss:  1.092167511049948
epoch: 8
epoch_8_loss:  1.092167511049948
epoch: 9
epoch_9_loss:  1.092167511049948
epoch: 10
epoch_10_loss:  1.092167511049948
epoch: 11
epoch_11_loss:  1.092167511049948
epoch: 12
epoch_12_loss:  1.092167511049948
epoch: 13
epoch_13_loss:  1.092167511049948
epoch: 14
epoch_14_loss:  … I 2022-11-13 11:47:00,659] Trial 52 finished with value: 1.092167511049948 and parameters: {'optimizer': 'Adam', 'lr': 5.6320674988522516e-05, 'n_layers': 3, 'n_units_l0': 3, 'n_units_l1': 2, 'n_units_l2': 2}. Best is trial 26 with value: 1.034786592180601.
Sequential(
  (0): Linear(in_features=5, out_features=3, bias=True)
  (1): ReLU()
  (2): Linear(in_features=3, out_features=3, bias=True)
  (3): ReLU()
  (4): Linear(in_features=3, out_features=3, bias=True)
  (5): ReLU()
)
Sequential(
  (0): Linear(in_features=3, out_features=3, bias=True)
  (1): ReLU()
  (2): Linear(in_features=3, out_features=3, bias=True)
  (3): ReLU()
  (4): Linear(in_features=3, out_features=5, bias=True)
)
epoch: 0
epoch_0_loss:  1.0915163317567467
epoch: 1
epoch_1_loss:  1.0915163317567467
epoch: 2
epoch_2_loss:  1.0915163317567467
epoch: 3
epoch_3_loss:  1.0915163317567467
epoch: 4
epoch_4_loss:  1.0915163317567467
epoch: 5
epoch_5_loss:  1.0915163317567467
epoch: 6
epoch_6_loss:  1.0915163317567467
epoch: 7
epoch_7_loss:  1.0915163317567467
epoch: 8
epoch_8_loss:  1.0915163317567467
epoch: 9
epoch_9_loss:  1.0915163317567467
epoch: 10
epoch_10_loss:  1.0915163317567467
epoch: 11
epoch_11_loss:  1.0915163317567467
epoch: 12
epoch_12_loss:  1.0915163317567467
epoch: 13
epoch_13_loss:  1.0915163317567467
epoch: 14
epoch_14_loss:  … I 2022-11-13 11:48:09,391] Trial 53 finished with value: 1.0915163317567467 and parameters: {'optimizer': 'Adam', 'lr': 4.505367712449648e-05, 'n_layers': 3, 'n_units_l0': 3, 'n_units_l1': 3, 'n_units_l2': 3}. Best is trial 26 with value: 1.034786592180601.
Sequential(
  (0): Linear(in_features=5, out_features=3, bias=True)
  (1): ReLU()
  (2): Linear(in_features=3, out_features=2, bias=True)
  (3): ReLU()
  (4): Linear(in_features=2, out_features=1, bias=True)
  (5): ReLU()
)
Sequential(
  (0): Linear(in_features=1, out_features=2, bias=True)
  (1): ReLU()
  (2): Linear(in_features=2, out_features=3, bias=True)
  (3): ReLU()
  (4): Linear(in_features=3, out_features=5, bias=True)
)
epoch: 0
epoch_0_loss:  1.0786008193073895
epoch: 1
epoch_1_loss:  1.0786008193073895
epoch: 2
epoch_2_loss:  1.0786008193073895
epoch: 3
epoch_3_loss:  1.0786008193073895
epoch: 4
epoch_4_loss:  1.0786008193073895
epoch: 5
epoch_5_loss:  1.0786008193073895
epoch: 6
epoch_6_loss:  1.0786008193073895
epoch: 7
epoch_7_loss:  1.0786008193073895
epoch: 8
epoch_8_loss:  1.0786008193073895
epoch: 9
epoch_9_loss:  1.0786008193073895
epoch: 10
epoch_10_loss:  1.0786008193073895
epoch: 11
epoch_11_loss:  1.0786008193073895
epoch: 12
epoch_12_loss:  1.0786008193073895
epoch: 13
epoch_13_loss:  1.0786008193073895
epoch: 14
epoch_14_loss:  … I 2022-11-13 11:49:18,344] Trial 54 finished with value: 1.0786008193073895 and parameters: {'optimizer': 'Adam', 'lr': 3.520058126340565e-05, 'n_layers': 3, 'n_units_l0': 3, 'n_units_l1': 2, 'n_units_l2': 1}. Best is trial 26 with value: 1.034786592180601.
Sequential(
  (0): Linear(in_features=5, out_features=4, bias=True)
  (1): ReLU()
  (2): Linear(in_features=4, out_features=3, bias=True)
  (3): ReLU()
  (4): Linear(in_features=3, out_features=2, bias=True)
  (5): ReLU()
)
Sequential(
  (0): Linear(in_features=2, out_features=3, bias=True)
  (1): ReLU()
  (2): Linear(in_features=3, out_features=4, bias=True)
  (3): ReLU()
  (4): Linear(in_features=4, out_features=5, bias=True)
)
epoch: 0
epoch_0_loss:  1.088810401750367
epoch: 1
epoch_1_loss:  1.088810401750367
epoch: 2
epoch_2_loss:  1.088810401750367
epoch: 3
epoch_3_loss:  1.088810401750367
epoch: 4
epoch_4_loss:  1.088810401750367
epoch: 5
epoch_5_loss:  1.088810401750367
epoch: 6
epoch_6_loss:  1.088810401750367
epoch: 7
epoch_7_loss:  1.088810401750367
epoch: 8
epoch_8_loss:  1.088810401750367
epoch: 9
epoch_9_loss:  1.088810401750367
epoch: 10
epoch_10_loss:  1.088810401750367
epoch: 11
epoch_11_loss:  1.088810401750367
epoch: 12
epoch_12_loss:  1.088810401750367
epoch: 13
epoch_13_loss:  1.088810401750367
epoch: 14
epoch_14_loss:  … I 2022-11-13 11:50:27,390] Trial 55 finished with value: 1.088810401750367 and parameters: {'optimizer': 'Adam', 'lr': 0.00021564140562905512, 'n_layers': 3, 'n_units_l0': 4, 'n_units_l1': 3, 'n_units_l2': 2}. Best is trial 26 with value: 1.034786592180601.
Sequential(
  (0): Linear(in_features=5, out_features=3, bias=True)
  (1): ReLU()
  (2): Linear(in_features=3, out_features=4, bias=True)
  (3): ReLU()
  (4): Linear(in_features=4, out_features=3, bias=True)
  (5): ReLU()
)
Sequential(
  (0): Linear(in_features=3, out_features=4, bias=True)
  (1): ReLU()
  (2): Linear(in_features=4, out_features=3, bias=True)
  (3): ReLU()
  (4): Linear(in_features=3, out_features=5, bias=True)
)
epoch: 0
epoch_0_loss:  1.2587356753991585
epoch: 1
epoch_1_loss:  1.2587356753991585
epoch: 2
epoch_2_loss:  1.2587356753991585
epoch: 3
epoch_3_loss:  1.2587356753991585
epoch: 4
epoch_4_loss:  1.2587356753991585
epoch: 5
epoch_5_loss:  1.2587356753991585
epoch: 6
epoch_6_loss:  1.2587356753991585
epoch: 7
epoch_7_loss:  1.2587356753991585
epoch: 8
epoch_8_loss:  1.2587356753991585
…
epoch: 7
epoch_7_loss:  1.200473617907333
epoch: 8
epoch_8_loss:  1.200473617907333
epoch: 9
epoch_9_loss:  1.200473617907333
epoch: 10
epoch_10_loss:  1.200473617907333
epoch: 11
epoch_11_loss:  1.200473617907333
epoch: 12
epoch_12_loss:  1.200473617907333
epoch: 13
epoch_13_loss:  1.200473617907333
epoch: 14
epoch_14_loss:  … I 2022-11-13 11:58:36,656] Trial 63 finished with value: 1.200473617907333 and parameters: {'optimizer': 'Adam', 'lr': 0.00011507888005198411, 'n_layers': 3, 'n_units_l0': 3, 'n_units_l1': 3, 'n_units_l2': 2}. Best is trial 26 with value: 1.034786592180601.
Sequential(
  (0): Linear(in_features=5, out_features=4, bias=True)
  (1): ReLU()
  (2): Linear(in_features=4, out_features=4, bias=True)
  (3): ReLU()
  (4): Linear(in_features=4, out_features=1, bias=True)
  (5): ReLU()
)
Sequential(
  (0): Linear(in_features=1, out_features=4, bias=True)
  (1): ReLU()
  (2): Linear(in_features=4, out_features=4, bias=True)
  (3): ReLU()
  (4): Linear(in_features=4, out_features=5, bias=True)
)
epoch: 0
epoch_0_loss:  1.0857833274075508
epoch: 1
epoch_1_loss:  1.0857833274075508
epoch: 2
epoch_2_loss:  1.0857833274075508
epoch: 3
epoch_3_loss:  1.0857833274075508
epoch: 4
epoch_4_loss:  1.0857833274075508
epoch: 5
epoch_5_loss:  1.0857833274075508
epoch: 6
epoch_6_loss:  1.0857833274075508
epoch: 7
epoch_7_loss:  1.0857833274075508
epoch: 8
epoch_8_loss:  1.0857833274075508
…
epoch: 7
epoch_7_loss:  1.080846074052641
epoch: 8
epoch_8_loss:  1.080846074052641
epoch: 9
epoch_9_loss:  1.080846074052641
epoch: 10
epoch_10_loss:  1.080846074052641
epoch: 11
epoch_11_loss:  1.080846074052641
epoch: 12
epoch_12_loss:  1.080846074052641
epoch: 13
epoch_13_loss:  1.080846074052641
epoch: 14
epoch_14_loss:  … I 2022-11-13 12:00:54,306] Trial 65 finished with value: 1.080846074052641 and parameters: {'optimizer': 'Adam', 'lr': 0.00014532046115826367, 'n_layers': 3, 'n_units_l0': 3, 'n_units_l1': 3, 'n_units_l2': 2}. Best is trial 26 with value: 1.034786592180601.
Sequential(
  (0): Linear(in_features=5, out_features=2, bias=True)
  (1): ReLU()
  (2): Linear(in_features=2, out_features=2, bias=True)
  (3): ReLU()
  (4): Linear(in_features=2, out_features=4, bias=True)
  (5): ReLU()
)
Sequential(
  (0): Linear(in_features=4, out_features=2, bias=True)
  (1): ReLU()
  (2): Linear(in_features=2, out_features=2, bias=True)
  (3): ReLU()
  (4): Linear(in_features=2, out_features=5, bias=True)
)
epoch: 0
epoch_0_loss:  1.176729529287569
epoch: 1
epoch_1_loss:  1.176729529287569
epoch: 2
epoch_2_loss:  1.176729529287569
epoch: 3
epoch_3_loss:  1.176729529287569
epoch: 4
epoch_4_loss:  1.176729529287569
epoch: 5
epoch_5_loss:  1.176729529287569
epoch: 6
epoch_6_loss:  1.176729529287569
epoch: 7
epoch_7_loss:  1.176729529287569
epoch: 8
epoch_8_loss:  1.176729529287569
…
epoch_6_loss:  1.1774967738399316
epoch: 7
epoch_7_loss:  1.1774967738399316
epoch: 8
epoch_8_loss:  1.1774967738399316
epoch: 9
epoch_9_loss:  1.1774967738399316
epoch: 10
epoch_10_loss:  1.1774967738399316
epoch: 11
epoch_11_loss:  1.1774967738399316
epoch: 12
epoch_12_loss:  1.1774967738399316
epoch: 13
epoch_13_loss:  1.1774967738399316
epoch: 14
epoch_14_loss:  … I 2022-11-13 12:04:30,825] Trial 68 finished with value: 1.1774967738399316 and parameters: {'optimizer': 'Adam', 'lr': 0.0003410631961654007, 'n_layers': 2, 'n_units_l0': 3, 'n_units_l1': 4}. Best is trial 26 with value: 1.034786592180601.
Sequential(
  (0): Linear(in_features=5, out_features=2, bias=True)
  (1): ReLU()
  (2): Linear(in_features=2, out_features=2, bias=True)
  (3): ReLU()
  (4): Linear(in_features=2, out_features=3, bias=True)
  (5): ReLU()
)
Sequential(
  (0): Linear(in_features=3, out_features=2, bias=True)
  (1): ReLU()
  (2): Linear(in_features=2, out_features=2, bias=True)
  (3): ReLU()
  (4): Linear(in_features=2, out_features=5, bias=True)
)
epoch: 0
epoch_0_loss:  1.1225703873420438
epoch: 1
epoch_1_loss:  1.1225703873420438
epoch: 2
epoch_2_loss:  1.1225703873420438
epoch: 3
epoch_3_loss:  1.1225703873420438
epoch: 4
epoch_4_loss:  1.1225703873420438
epoch: 5
epoch_5_loss:  1.1225703873420438
epoch: 6
epoch_6_loss:  1.1225703873420438
epoch: 7
epoch_7_loss:  1.1225703873420438
epoch: 8
epoch_8_loss:  1.1225703873420438
…
epoch_6_loss:  1.0708365531836996
epoch: 7
epoch_7_loss:  1.0708365531836996
epoch: 8
epoch_8_loss:  1.0708365531836996
epoch: 9
epoch_9_loss:  1.0708365531836996
epoch: 10
epoch_10_loss:  1.0708365531836996
epoch: 11
epoch_11_loss:  1.0708365531836996
epoch: 12
epoch_12_loss:  1.0708365531836996
epoch: 13
epoch_13_loss:  1.0708365531836996
epoch: 14
epoch_14_loss:  … I 2022-11-13 12:33:37,424] Trial 99 finished with value: 1.0708365531836996 and parameters: {'optimizer': 'Adam', 'lr': 0.00043944762116599547, 'n_layers': 2, 'n_units_l0': 5, 'n_units_l1': 4}. Best is trial 82 with value: 1.030790233782338.
Sequential(
  (0): Linear(in_features=5, out_features=4, bias=True)
  (1): ReLU()
)
Sequential(
  (0): Linear(in_features=4, out_features=5, bias=True)
)
epoch: 0
epoch_0_loss:  1.22587267316821
epoch: 1
epoch_1_loss:  1.22587267316821
epoch: 2
epoch_2_loss:  1.22587267316821
epoch: 3
epoch_3_loss:  1.22587267316821
epoch: 4
epoch_4_loss:  1.22587267316821
epoch: 5
epoch_5_loss:  1.22587267316821
epoch: 6
epoch_6_loss:  1.22587267316821
epoch: 7
epoch_7_loss:  1.22587267316821
epoch: 8
epoch_8_loss:  1.22587267316821
epoch: 9
epoch_9_loss:  1.22587267316821
epoch: 10
epoch_10_loss:  1.22587267316821
epoch: 11
epoch_11_loss:  1.22587267316821
epoch: 12
epoch_12_loss:  1.22587267316821
epoch: 13
epoch_13_loss:  1.22587267316821
epoch: 14
epoch_14_loss:  … I 2022-11-13 12:34:32,576] Trial 100 finished with value: 1.22587267316821 and parameters: {'optimizer': 'Adam', 'lr': 0.0007749146773428703, 'n_layers': 1, 'n_units_l0': 4}. Best is trial 82 with value: 1.030790233782338.
Sequential(
  (0): Linear(in_features=5, out_features=5, bias=True)
  (1): ReLU()
  (2): Linear(in_features=5, out_features=5, bias=True)
  (3): ReLU()
)
Sequential(
  (0): Linear(in_features=5, out_features=5, bias=True)
  (1): ReLU()
  (2): Linear(in_features=5, out_features=5, bias=True)
)
epoch: 0
epoch_0_loss:  1.0294992527642812
epoch: 1
epoch_1_loss:  1.0294992527642812
epoch: 2
epoch_2_loss:  1.0294992527642812
epoch: 3
epoch_3_loss:  1.0294992527642812
epoch: 4
epoch_4_loss:  1.0294992527642812
epoch: 5
epoch_5_loss:  1.0294992527642812
epoch: 6
epoch_6_loss:  1.0294992527642812
epoch: 7
epoch_7_loss:  1.0294992527642812
epoch: 8
epoch_8_loss:  1.0294992527642812
…
epoch_14_loss:  … I 2022-11-13 14:08:13,554] Trial 199 finished with value: 1.085145620389254 and parameters: {'optimizer': 'Adam', 'lr': 0.00045319612478198813, 'n_layers': 2, 'n_units_l0': 5, 'n_units_l1': 4}. Best is trial 126 with value: 1.0114372774826383.
Study statistics: 
  Number of finished trials:  200
  Number of pruned trials:  0
  Number of complete trials:  200
Best trial:
  Value:  1.0114372774826383
  Params: 
    optimizer: Adam
    lr: 0.00029737624946486973
    n_layers: 2
    n_units_l0: 4
    n_units_l1: 4
MSE for DAE:  0.03233578313086887
RR for DAE:  0.9999824230660341
MSE for DAE:  0.09962067696823904
RR for DAE:  0.999958326543094
VAE is selected
Encoder(
  (FC_input): Linear(in_features=5, out_features=5, bias=True)
  (FC_input2): Linear(in_features=5, out_features=5, bias=True)
  (FC_mean): Linear(in_features=5, out_features=5, bias=True)
  (FC_var): Linear(in_features=5, out_features=5, bias=True)
  (LeakyReLU): LeakyReLU(negative_slope=0.2)
)
Decoder(
  (FC_hidden): Linear(in_features=5, out_features=5, bias=True)
  (FC_hidden2): Linear(in_features=5, out_features=5, bias=True)
  (FC_output): Linear(in_features=5, out_features=5, bias=True)
  (LeakyReLU): LeakyReLU(negative_slope=0.2)
)
Optimizing VAE
build_Encoder(
  (FC_input): Linear(in_features=5, out_features=5, bias=True)
  (FC_input2): Linear(in_features=5, out_features=5, bias=True)
  (FC_mean): Linear(in_features=5, out_features=4, bias=True)
  (FC_var): Linear(in_features=5, out_features=4, bias=True)
  (LeakyReLU): LeakyReLU(negative_slope=0.01)
)
build_Decoder(
  (FC_hidden): Linear(in_features=4, out_features=5, bias=True)
  (FC_hidden2): Linear(in_features=5, out_features=5, bias=True)
  (FC_output): Linear(in_features=5, out_features=5, bias=True)
  (LeakyReLU): LeakyReLU(negative_slope=0.2)
)
epoch: 0
[I 2022-11-13 14:08:18,181] A new study created in memory with name: no-name-f2acbe56-f385-4b88-a89f-895e8fba6564
epoch_0_loss:  1.088579598708885
epoch: 1
epoch_1_loss:  1.0887748540404665
epoch: 2
epoch_2_loss:  1.090051264766561
epoch: 3
epoch_3_loss:  1.0897748042338766
epoch: 4
epoch_4_loss:  1.0897177929593707
epoch: 5
epoch_5_loss:  1.0882516009099332
epoch: 6
epoch_6_loss:  1.0905066304137288
epoch: 7
epoch_7_loss:  1.0899077541852338
epoch: 8
epoch_8_loss:  1.0889752437135642
epoch: 9
epoch_9_loss:  1.0903350280220165
epoch: 10
epoch_10_loss:  1.0895850288726543
epoch: 11
epoch_11_loss:  1.0900084920926736
epoch: 12
epoch_12_loss:  1.0904087637972584
epoch: 13
epoch_13_loss:  1.0883561266668076
epoch: 14
epoch_14_loss:  … build_Encoder(
  (FC_input): Linear(in_features=5, out_features=4, bias=True)
  (FC_input2): Linear(in_features=4, out_features=4, bias=True)
  (FC_mean): Linear(in_features=4, out_features=3, bias=True)
  (FC_var): Linear(in_features=4, out_features=3, bias=True)
  (LeakyReLU): LeakyReLU(negative_slope=0.01)
)
build_Decoder(
  (FC_hidden): Linear(in_features=3, out_features=4, bias=True)
  (FC_hidden2): Linear(in_features=4, out_features=4, bias=True)
  (FC_output): Linear(in_features=4, out_features=5, bias=True)
  (LeakyReLU): LeakyReLU(negative_slope=0.2)
)
epoch: 0
[I 2022-11-13 14:09:38,199] Trial 0 finished with value: 1.0895613487753824 and parameters: {'optimizer': 'Adam', 'lr': 4.034561987801074e-05, 'hidden_dim': 5, 'latent_dim': 4}. Best is trial 0 with value: 1.0895613487753824.
epoch_0_loss:  1.107643073634903
epoch: 1
epoch_1_loss:  1.1052824386816187
epoch: 2
epoch_2_loss:  1.1095100486710003
epoch: 3
epoch_3_loss:  1.1049707496261787
epoch: 4
epoch_4_loss:  1.1078243048559615
epoch: 5
epoch_5_loss:  1.1064462634630228
epoch: 6
epoch_6_loss:  1.1082269973281977
epoch: 7
epoch_7_loss:  1.1074712991117763
epoch: 8
epoch_8_loss:  1.1066008412381683
epoch: 9
epoch_9_loss:  1.1067150680009756
epoch: 10
epoch_10_loss:  1.107470921260307
epoch: 11
epoch_11_loss:  1.1076600217648753
epoch: 12
epoch_12_loss:  1.1057297569602829
epoch: 13
epoch_13_loss:  1.1070113754412667
epoch: 14
epoch_14_loss:  … build_Encoder(
  (FC_input): Linear(in_features=5, out_features=4, bias=True)
  (FC_input2): Linear(in_features=4, out_features=4, bias=True)
  (FC_mean): Linear(in_features=4, out_features=5, bias=True)
  (FC_var): Linear(in_features=4, out_features=5, bias=True)
  (LeakyReLU): LeakyReLU(negative_slope=0.01)
)
build_Decoder(
  (FC_hidden): Linear(in_features=5, out_features=4, bias=True)
  (FC_hidden2): Linear(in_features=4, out_features=4, bias=True)
  (FC_output): Linear(in_features=4, out_features=5, bias=True)
  (LeakyReLU): LeakyReLU(negative_slope=0.2)
)
epoch: 0
[I 2022-11-13 14:10:58,324] Trial 1 finished with value: 1.1073066657651618 and parameters: {'optimizer': 'Adam', 'lr': 0.00014056538242274413, 'hidden_dim': 4, 'latent_dim': 3}. Best is trial 0 with value: 1.0895613487753824.
epoch_0_loss:  1.0864794635227213
epoch: 1
epoch_1_loss:  1.0838483106504027
epoch: 2
epoch_2_loss:  1.0821853638565346
epoch: 3
epoch_3_loss:  1.0838039727014124
epoch: 4
epoch_4_loss:  1.0820528410918369
epoch: 5
epoch_5_loss:  1.0834836024458219
epoch: 6
epoch_6_loss:  1.0834059122714075
epoch: 7
epoch_7_loss:  1.0843691835805849
epoch: 8
epoch_8_loss:  1.0834983318308131
epoch: 9
epoch_9_loss:  1.0833038644347726
epoch: 10
epoch_10_loss:  1.0846983578329417
epoch: 11
epoch_11_loss:  1.082795375294997
epoch: 12
epoch_12_loss:  1.0833904985510578
epoch: 13
epoch_13_loss:  1.0836842403129303
epoch: 14
epoch_14_loss:  … build_Encoder(
  (FC_input): Linear(in_features=5, out_features=5, bias=True)
  (FC_input2): Linear(in_features=5, out_features=5, bias=True)
  (FC_mean): Linear(in_features=5, out_features=5, bias=True)
  (FC_var): Linear(in_features=5, out_features=5, bias=True)
  (LeakyReLU): LeakyReLU(negative_slope=0.01)
)
build_Decoder(
  (FC_hidden): Linear(in_features=5, out_features=5, bias=True)
  (FC_hidden2): Linear(in_features=5, out_features=5, bias=True)
  (FC_output): Linear(in_features=5, out_features=5, bias=True)
  (LeakyReLU): LeakyReLU(negative_slope=0.2)
)
epoch: 0
[I 2022-11-13 14:12:18,512] Trial 2 finished with value: 1.0817678873454597 and parameters: {'optimizer': 'Adam', 'lr': 3.369105918566501e-05, 'hidden_dim': 4, 'latent_dim': 5}. Best is trial 2 with value: 1.0817678873454597.
epoch_0_loss:  1.1586753259475147
epoch: 1
epoch_1_loss:  1.1584802903618336
…
epoch_6_loss:  1.1575511827218878
epoch: 7
epoch_7_loss:  1.1573949485420447
epoch: 8
epoch_8_loss:  1.1549250177764712
epoch: 9
epoch_9_loss:  1.1589891180224994
epoch: 10
epoch_10_loss:  1.157625522312271
epoch: 11
epoch_11_loss:  1.156460215833293
epoch: 12
epoch_12_loss:  1.1576805279234326
epoch: 13
epoch_13_loss:  1.1589016380096655
epoch: 14
epoch_14_loss:  … I 2022-11-13 14:13:38,758] Trial 3 finished with value: 1.1573984019757695 and parameters: {'optimizer': 'Adam', 'lr': 5.771830999629701e-05, 'hidden_dim': 5, 'latent_dim': 5}. Best is trial 2 with value: 1.0817678873454597.
build_Encoder(
  (FC_input): Linear(in_features=5, out_features=4, bias=True)
  (FC_input2): Linear(in_features=4, out_features=4, bias=True)
  (FC_mean): Linear(in_features=4, out_features=3, bias=True)
  (FC_var): Linear(in_features=4, out_features=3, bias=True)
  (LeakyReLU): LeakyReLU(negative_slope=0.01)
)
build_Decoder(
  (FC_hidden): Linear(in_features=3, out_features=4, bias=True)
  (FC_hidden2): Linear(in_features=4, out_features=4, bias=True)
  (FC_output): Linear(in_features=4, out_features=5, bias=True)
  (LeakyReLU): LeakyReLU(negative_slope=0.2)
)
epoch: 0
epoch_0_loss:  1.1427035627314714
epoch: 1
epoch_1_loss:  1.1422657600320507
epoch: 2
epoch_2_loss:  1.1429678598289474
epoch: 3
epoch_3_loss:  1.1407596175184616
epoch: 4
epoch_4_loss:  1.1428779566217682
epoch: 5
epoch_5_loss:  1.1412476179272393
epoch: 6
epoch_6_loss:  1.141265713935105
epoch: 7
epoch_7_loss:  1.1432584806733215
epoch: 8
epoch_8_loss:  1.1421536966562778
epoch: 9
epoch_9_loss:  1.1433803518298176
epoch: 10
epoch_10_loss:  1.1413728945314945
epoch: 11
epoch_11_loss:  1.1440605608045114
epoch: 12
epoch_12_loss:  1.1431714008840412
epoch: 13
epoch_13_loss:  1.1436893717205614
epoch: 14
epoch_14_loss:  … I 2022-11-13 14:14:58,931] Trial 4 finished with value: 1.1422146450637158 and parameters: {'optimizer': 'Adam', 'lr': 0.0007678995658334823, 'hidden_dim': 4, 'latent_dim': 3}. Best is trial 2 with value: 1.0817678873454597.
build_Encoder(
  (FC_input): Linear(in_features=5, out_features=5, bias=True)
  (FC_input2): Linear(in_features=5, out_features=5, bias=True)
  (FC_mean): Linear(in_features=5, out_features=5, bias=True)
  (FC_var): Linear(in_features=5, out_features=5, bias=True)
  (LeakyReLU): LeakyReLU(negative_slope=0.01)
)
build_Decoder(
  (FC_hidden): Linear(in_features=5, out_features=5, bias=True)
  (FC_hidden2): Linear(in_features=5, out_features=5, bias=True)
  (FC_output): Linear(in_features=5, out_features=5, bias=True)
  (LeakyReLU): LeakyReLU(negative_slope=0.2)
)
epoch: 0
epoch_0_loss:  1.1165942997947853
epoch: 1
epoch_1_loss:  1.1144949501582184
epoch: 2
epoch_2_loss:  1.113657371472039
epoch: 3
epoch_3_loss:  1.114754924441116
epoch: 4
epoch_4_loss:  1.1165288138738358
epoch: 5
epoch_5_loss:  1.1168933138540795
epoch: 6
epoch_6_loss:  1.1162831620752678
epoch: 7
epoch_7_loss:  1.1135469020513316
epoch: 8
epoch_8_loss:  1.1181146966488273
epoch: 9
epoch_9_loss:  1.117247325754538
epoch: 10
epoch_10_loss:  1.1174674432207545
epoch: 11
epoch_11_loss:  1.1157725485742251
epoch: 12
epoch_12_loss:  1.1148481966285555
epoch: 13
epoch_13_loss:  1.115954925882252
epoch: 14
epoch_14_loss:  … build_Encoder(
  (FC_input): Linear(in_features=5, out_features=4, bias=True)
  (FC_input2): Linear(in_features=4, out_features=4, bias=True)
  (FC_mean): Linear(in_features=4, out_features=4, bias=True)
  (FC_var): Linear(in_features=4, out_features=4, bias=True)
  (LeakyReLU): LeakyReLU(negative_slope=0.01)
)
build_Decoder(
  (FC_hidden): Linear(in_features=4, out_features=4, bias=True)
  (FC_hidden2): Linear(in_features=4, out_features=4, bias=True)
  (FC_output): Linear(in_features=4, out_features=5, bias=True)
  (LeakyReLU): LeakyReLU(negative_slope=0.2)
)
epoch: 0
[I 2022-11-13 14:16:19,296] Trial 5 finished with value: 1.1145391810387562 and parameters: {'optimizer': 'Adam', 'lr': 6.780838408966388e-05, 'hidden_dim': 5, 'latent_dim': 5}. Best is trial 2 with value: 1.0817678873454597.
epoch_0_loss:  1.1808753194883612
epoch: 1
epoch_1_loss:  1.1813814011148147
…
epoch_6_loss:  1.0530264044988475
epoch: 7
epoch_7_loss:  1.0587576190849495
epoch: 8
epoch_8_loss:  1.0590293384972127
epoch: 9
epoch_9_loss:  1.0566825178662824
epoch: 10
epoch_10_loss:  1.058116874827614
epoch: 11
epoch_11_loss:  1.0546429685729828
epoch: 12
epoch_12_loss:  1.0582617600488853
epoch: 13
epoch_13_loss:  1.056482657661348
epoch: 14
epoch_14_loss:  … I 2022-11-13 14:18:59,740] Trial 7 finished with value: 1.05807162945617 and parameters: {'optimizer': 'Adam', 'lr': 6.973463007424898e-05, 'hidden_dim': 4, 'latent_dim': 3}. Best is trial 7 with value: 1.05807162945617.
build_Encoder(
  (FC_input): Linear(in_features=5, out_features=4, bias=True)
  (FC_input2): Linear(in_features=4, out_features=4, bias=True)
  (FC_mean): Linear(in_features=4, out_features=5, bias=True)
  (FC_var): Linear(in_features=4, out_features=5, bias=True)
  (LeakyReLU): LeakyReLU(negative_slope=0.01)
)
build_Decoder(
  (FC_hidden): Linear(in_features=5, out_features=4, bias=True)
  (FC_hidden2): Linear(in_features=4, out_features=4, bias=True)
  (FC_output): Linear(in_features=4, out_features=5, bias=True)
  (LeakyReLU): LeakyReLU(negative_slope=0.2)
)
epoch: 0
epoch_0_loss:  1.144379369793259
epoch: 1
epoch_1_loss:  1.143096363534058
epoch: 2
epoch_2_loss:  1.144348053662294
epoch: 3
epoch_3_loss:  1.1413858168061068
epoch: 4
epoch_4_loss:  1.1447185297000833
epoch: 5
epoch_5_loss:  1.1438996174080114
epoch: 6
epoch_6_loss:  1.1449306655256064
epoch: 7
epoch_7_loss:  1.1431356397568522
epoch: 8
epoch_8_loss:  1.145183475545963
epoch: 9
epoch_9_loss:  1.141907567260315
epoch: 10
epoch_10_loss:  1.145388881365806
epoch: 11
epoch_11_loss:  1.1445299583104878
epoch: 12
epoch_12_loss:  1.1431288775803796
epoch: 13
epoch_13_loss:  1.1435261312428808
epoch: 14
epoch_14_loss:  … build_Encoder(
  (FC_input): Linear(in_features=5, out_features=5, bias=True)
  (FC_input2): Linear(in_features=5, out_features=5, bias=True)
  (FC_mean): Linear(in_features=5, out_features=4, bias=True)
  (FC_var): Linear(in_features=5, out_features=4, bias=True)
  (LeakyReLU): LeakyReLU(negative_slope=0.01)
)
build_Decoder(
  (FC_hidden): Linear(in_features=4, out_features=5, bias=True)
  (FC_hidden2): Linear(in_features=5, out_features=5, bias=True)
  (FC_output): Linear(in_features=5, out_features=5, bias=True)
  (LeakyReLU): LeakyReLU(negative_slope=0.2)
)
epoch: 0
[I 2022-11-13 14:20:20,109] Trial 8 finished with value: 1.1421979861292237 and parameters: {'optimizer': 'Adam', 'lr': 4.179901485288251e-05, 'hidden_dim': 4, 'latent_dim': 5}. Best is trial 7 with value: 1.05807162945617.
epoch_0_loss:  1.0502428763742433
epoch: 1
epoch_1_loss:  1.0498986267169155
epoch: 2
…
epoch_6_loss:  1.0504528701178117
epoch: 7
epoch_7_loss:  1.0496741780465888
epoch: 8
epoch_8_loss:  1.050119956586801
epoch: 9
epoch_9_loss:  1.0504831490024729
epoch: 10
epoch_10_loss:  1.0497151937139346
epoch: 11
epoch_11_loss:  1.0489000665512664
epoch: 12
epoch_12_loss:  1.0500528360061083
epoch: 13
epoch_13_loss:  1.048977362097887
epoch: 14
epoch_14_loss:  … I 2022-11-13 14:21:40,325] Trial 9 finished with value: 1.0502429785452327 and parameters: {'optimizer': 'Adam', 'lr': 9.857309679577888e-05, 'hidden_dim': 5, 'latent_dim': 4}. Best is trial 9 with value: 1.0502429785452327.
build_Encoder(
  (FC_input): Linear(in_features=5, out_features=3, bias=True)
  (FC_input2): Linear(in_features=3, out_features=3, bias=True)
  (FC_mean): Linear(in_features=3, out_features=4, bias=True)
  (FC_var): Linear(in_features=3, out_features=4, bias=True)
  (LeakyReLU): LeakyReLU(negative_slope=0.01)
)
build_Decoder(
  (FC_hidden): Linear(in_features=4, out_features=3, bias=True)
  (FC_hidden2): Linear(in_features=3, out_features=3, bias=True)
  (FC_output): Linear(in_features=3, out_features=5, bias=True)
  (LeakyReLU): LeakyReLU(negative_slope=0.2)
)
epoch: 0
epoch_0_loss:  1.0839425602303705
epoch: 1
epoch_1_loss:  1.084244607035874
epoch: 2
epoch_2_loss:  1.0840490140222707
epoch: 3
epoch_3_loss:  1.0839629068629553
epoch: 4
epoch_4_loss:  1.085177782104066
epoch: 5
epoch_5_loss:  1.0840253556260406
epoch: 6
epoch_6_loss:  1.0842736506815327
epoch: 7
epoch_7_loss:  1.0837948335343395
epoch: 8
epoch_8_loss:  1.0823971080804753
epoch: 9
epoch_9_loss:  1.083941834885653
epoch: 10
epoch_10_loss:  1.0840005564562833
epoch: 11
epoch_11_loss:  1.0833644511344267
epoch: 12
epoch_12_loss:  1.083929751570527
epoch: 13
epoch_13_loss:  1.0827880975225948
epoch: 14
epoch_14_loss:  … I 2022-11-13 14:23:00,380] Trial 10 finished with value: 1.084645139489133 and parameters: {'optimizer': 'Adam', 'lr': 0.00021951650727357417, 'hidden_dim': 3, 'latent_dim': 4}. Best is trial 9 with value: 1.0502429785452327.
build_Encoder(
  (FC_input): Linear(in_features=5, out_features=3, bias=True)
  (FC_input2): Linear(in_features=3, out_features=3, bias=True)
  (FC_mean): Linear(in_features=3, out_features=3, bias=True)
  (FC_var): Linear(in_features=3, out_features=3, bias=True)
  (LeakyReLU): LeakyReLU(negative_slope=0.01)
)
build_Decoder(
  (FC_hidden): Linear(in_features=3, out_features=3, bias=True)
  (FC_hidden2): Linear(in_features=3, out_features=3, bias=True)
  (FC_output): Linear(in_features=3, out_features=5, bias=True)
  (LeakyReLU): LeakyReLU(negative_slope=0.2)
)
epoch: 0
epoch_0_loss:  1.3076527060216354
epoch: 1
epoch_1_loss:  1.3028836196902132
epoch: 2
epoch_2_loss:  1.3059191077614312
epoch: 3
epoch_3_loss:  1.3010599547658075
epoch: 4
epoch_4_loss:  1.302346887601082
epoch: 5
epoch_5_loss:  1.3062061002312133
epoch: 6
epoch_6_loss:  1.3012224222139332
epoch: 7
epoch_7_loss:  1.3002620158819793
epoch: 8
epoch_8_loss:  1.3001327835896046
epoch: 9
epoch_9_loss:  1.3048203271203154
epoch: 10
epoch_10_loss:  1.305365535906834
epoch: 11
epoch_11_loss:  1.3107629833356729
epoch: 12
epoch_12_loss:  1.301781555438204
epoch: 13
epoch_13_loss:  1.3037086658109864
epoch: 14
epoch_14_loss:  … I 2022-11-13 14:24:20,327] Trial 11 finished with value: 1.3086040757695077 and parameters: {'optimizer': 'Adam', 'lr': 1.1013088714280672e-05, 'hidden_dim': 3, 'latent_dim': 3}. Best is trial 9 with value: 1.0502429785452327.
build_Encoder(
  (FC_input): Linear(in_features=5, out_features=5, bias=True)
  (FC_input2): Linear(in_features=5, out_features=5, bias=True)
  (FC_mean): Linear(in_features=5, out_features=3, bias=True)
  (FC_var): Linear(in_features=5, out_features=3, bias=True)
  (LeakyReLU): LeakyReLU(negative_slope=0.01)
)
build_Decoder(
  (FC_hidden): Linear(in_features=3, out_features=5, bias=True)
  (FC_hidden2): Linear(in_features=5, out_features=5, bias=True)
  (FC_output): Linear(in_features=5, out_features=5, bias=True)
  (LeakyReLU): LeakyReLU(negative_slope=0.2)
)
epoch: 0
epoch_0_loss:  1.0776537285965886
epoch: 1
epoch_1_loss:  1.0778827692745334
epoch: 2
epoch_2_loss:  1.0780793430519169
epoch: 3
epoch_3_loss:  1.0779199658162022
epoch: 4
epoch_4_loss:  1.0769978072018305
epoch: 5
epoch_5_loss:  1.078055080723511
epoch: 6
epoch_6_loss:  1.077994669801669
epoch: 7
epoch_7_loss:  1.077876597182323
…
epoch_6_loss:  1.0782146846063934
epoch: 7
epoch_7_loss:  1.0789005988428368
epoch: 8
epoch_8_loss:  1.0786033673033284
epoch: 9
epoch_9_loss:  1.0783748193848064
epoch: 10
epoch_10_loss:  1.0809481009381694
epoch: 11
epoch_11_loss:  1.0779525431705514
epoch: 12
epoch_12_loss:  1.0796602714248158
epoch: 13
epoch_13_loss:  1.0796542877735098
epoch: 14
epoch_14_loss:  … I 2022-11-13 14:28:20,563] Trial 14 finished with value: 1.0795131287849433 and parameters: {'optimizer': 'Adam', 'lr': 0.00014943250506613476, 'hidden_dim': 5, 'latent_dim': 3}. Best is trial 9 with value: 1.0502429785452327.
build_Encoder(
  (FC_input): Linear(in_features=5, out_features=4, bias=True)
  (FC_input2): Linear(in_features=4, out_features=4, bias=True)
  (FC_mean): Linear(in_features=4, out_features=4, bias=True)
  (FC_var): Linear(in_features=4, out_features=4, bias=True)
  (LeakyReLU): LeakyReLU(negative_slope=0.01)
)
build_Decoder(
  (FC_hidden): Linear(in_features=4, out_features=4, bias=True)
  (FC_hidden2): Linear(in_features=4, out_features=4, bias=True)
  (FC_output): Linear(in_features=4, out_features=5, bias=True)
  (LeakyReLU): LeakyReLU(negative_slope=0.2)
)
epoch: 0
epoch_0_loss:  1.1156138130723157
epoch: 1
epoch_1_loss:  1.1168062214386756
epoch: 2
epoch_2_loss:  1.1153496297942727
epoch: 3
epoch_3_loss:  1.1161616365094071
epoch: 4
epoch_4_loss:  1.1153736864483947
epoch: 5
epoch_5_loss:  1.1162788859910577
epoch: 6
epoch_6_loss:  1.1151246639752035
epoch: 7
epoch_7_loss:  1.1162057014605231
…
epoch_6_loss:  1.0961852262001452
epoch: 7
epoch_7_loss:  1.0962954294184253
epoch: 8
epoch_8_loss:  1.097724882843303
epoch: 9
epoch_9_loss:  1.09557448012004
epoch: 10
epoch_10_loss:  1.0956844372079673
epoch: 11
epoch_11_loss:  1.0948456231984816
epoch: 12
epoch_12_loss:  1.0969581124521437
epoch: 13
epoch_13_loss:  1.09760564563846
epoch: 14
epoch_14_loss:  … I 2022-11-13 14:48:37,123] Trial 29 finished with value: 1.0973423081476243 and parameters: {'optimizer': 'Adam', 'lr': 3.6203049671794576e-05, 'hidden_dim': 5, 'latent_dim': 3}. Best is trial 18 with value: 1.0382107218962973.
build_Encoder(
  (FC_input): Linear(in_features=5, out_features=5, bias=True)
  (FC_input2): Linear(in_features=5, out_features=5, bias=True)
  (FC_mean): Linear(in_features=5, out_features=4, bias=True)
  (FC_var): Linear(in_features=5, out_features=4, bias=True)
  (LeakyReLU): LeakyReLU(negative_slope=0.01)
)
build_Decoder(
  (FC_hidden): Linear(in_features=4, out_features=5, bias=True)
  (FC_hidden2): Linear(in_features=5, out_features=5, bias=True)
  (FC_output): Linear(in_features=5, out_features=5, bias=True)
  (LeakyReLU): LeakyReLU(negative_slope=0.2)
)
epoch: 0
epoch_0_loss:  1.0477459251555166
epoch: 1
epoch_1_loss:  1.048567753632427
epoch: 2
epoch_2_loss:  1.0479633689363017
epoch: 3
epoch_3_loss:  1.0465100261788827
epoch: 4
epoch_4_loss:  1.048488016556651
epoch: 5
epoch_5_loss:  1.0479626162577493
epoch: 6
epoch_6_loss:  1.0474246706556944
epoch: 7
epoch_7_loss:  1.0469965664519911
…
epoch_14_loss:  … I 2022-11-13 18:40:14,130] Trial 199 finished with value: 1.1632455521988472 and parameters: {'optimizer': 'Adam', 'lr': 8.073240383491563e-05, 'hidden_dim': 4, 'latent_dim': 4}. Best is trial 58 with value: 1.0133226465254404.
Study statistics: 
  Number of finished trials:  200
  Number of pruned trials:  0
  Number of complete trials:  200
Best trial:
  Value:  1.0133226465254404
  Params: 
    optimizer: Adam
    lr: 4.866718058583817e-05
    hidden_dim: 4
    latent_dim: 4
MSE for VAE:  1.171750033872189
RR for VAE:  0.9992260654006626
[I 2022-11-13 18:40:20,498] A new study created in memory with name: no-name-3808aed3-654b-47e9-a0af-c9b4082e577d
MSE for VAE:  1.1958300556206738
RR for VAE:  0.999173277188348
MVAE is selected
Encoder(
  (FC_input): Linear(in_features=5, out_features=5, bias=True)
  (FC_input2): Linear(in_features=5, out_features=5, bias=True)
  (FC_mean): Linear(in_features=5, out_features=5, bias=True)
  (FC_var): Linear(in_features=5, out_features=5, bias=True)
  (LeakyReLU): LeakyReLU(negative_slope=0.2)
)
Decoder(
  (FC_hidden): Linear(in_features=5, out_features=5, bias=True)
  (FC_hidden2): Linear(in_features=5, out_features=5, bias=True)
  (FC_output): Linear(in_features=5, out_features=5, bias=True)
  (LeakyReLU): LeakyReLU(negative_slope=0.2)
)
Optimizing MVAE
build_Encoder(
  (FC_input): Linear(in_features=5, out_features=5, bias=True)
  (FC_input2): Linear(in_features=5, out_features=5, bias=True)
  (FC_mean): Linear(in_features=5, out_features=5, bias=True)
  (FC_var): Linear(in_features=5, out_features=5, bias=True)
  (LeakyReLU): LeakyReLU(negative_slope=0.01)
)
build_Decoder(
  (FC_hidden): Linear(in_features=5, out_features=5, bias=True)
  (FC_hidden2): Linear(in_features=5, out_features=5, bias=True)
  (FC_output): Linear(in_features=5, out_features=5, bias=True)
  (LeakyReLU): LeakyReLU(negative_slope=0.2)
)
epoch: 0
epoch_0_loss:  1.0397417541724105
epoch: 1
epoch_1_loss:  1.0397219250227858
epoch: 2
epoch_2_loss:  1.039680745519864
epoch: 3
epoch_3_loss:  1.039736528687575
epoch: 4
epoch_4_loss:  1.0397823164448168
epoch: 5
epoch_5_loss:  1.039706885969974
epoch: 6
epoch_6_loss:  1.0397078161316229
epoch: 7
epoch_7_loss:  1.0397598491150646
epoch: 8
epoch_8_loss:  1.039730340926599
epoch: 9
epoch_9_loss:  1.0396949315471802
epoch: 10
epoch_10_loss:  1.0397654387027884
epoch: 11
epoch_11_loss:  1.0397875471806972
epoch: 12
epoch_12_loss:  1.039730427535556
epoch: 13
epoch_13_loss:  1.0397280150570274
epoch: 14
epoch_14_loss:  … I 2022-11-13 18:42:42,520] Trial 0 finished with value: 1.039728169311632 and parameters: {'optimizer': 'Adam', 'lr': 0.0002811640103834182, 'hidden_dim': 5, 'latent_dim': 5, 'mem_dim': 183}. Best is trial 0 with value: 1.039728169311632.
build_Encoder(
  (FC_input): Linear(in_features=5, out_features=3, bias=True)
  (FC_input2): Linear(in_features=3, out_features=3, bias=True)
  (FC_mean): Linear(in_features=3, out_features=5, bias=True)
  (FC_var): Linear(in_features=3, out_features=5, bias=True)
  (LeakyReLU): LeakyReLU(negative_slope=0.01)
)
build_Decoder(
  (FC_hidden): Linear(in_features=5, out_features=3, bias=True)
  (FC_hidden2): Linear(in_features=3, out_features=3, bias=True)
  (FC_output): Linear(in_features=3, out_features=5, bias=True)
  (LeakyReLU): LeakyReLU(negative_slope=0.2)
)
epoch: 0
epoch_0_loss:  1.2596979174774439
epoch: 1
epoch_1_loss:  1.2593529980470073
epoch: 2
epoch_2_loss:  1.2593238852621877
epoch: 3
epoch_3_loss:  1.259355115842724
epoch: 4
epoch_4_loss:  1.259214154661361
epoch: 5
epoch_5_loss:  1.2591256256421568
epoch: 6
epoch_6_loss:  1.2591820900977593
epoch: 7
epoch_7_loss:  1.2591239424160017
epoch: 8
epoch_8_loss:  1.2594478058787044
epoch: 9
epoch_9_loss:  1.259345449328848
epoch: 10
epoch_10_loss:  1.2592423919737505
epoch: 11
epoch_11_loss:  1.2592678705026408
epoch: 12
epoch_12_loss:  1.2592173630501569
epoch: 13
epoch_13_loss:  1.259283928447321
epoch: 14
epoch_14_loss:  … build_Encoder(
  (FC_input): Linear(in_features=5, out_features=3, bias=True)
  (FC_input2): Linear(in_features=3, out_features=3, bias=True)
  (FC_mean): Linear(in_features=3, out_features=5, bias=True)
  (FC_var): Linear(in_features=3, out_features=5, bias=True)
  (LeakyReLU): LeakyReLU(negative_slope=0.01)
)
build_Decoder(
  (FC_hidden): Linear(in_features=5, out_features=3, bias=True)
  (FC_hidden2): Linear(in_features=3, out_features=3, bias=True)
  (FC_output): Linear(in_features=3, out_features=5, bias=True)
  (LeakyReLU): LeakyReLU(negative_slope=0.2)
)
epoch: 0
[I 2022-11-13 18:45:04,488] Trial 1 finished with value: 1.259486629904877 and parameters: {'optimizer': 'Adam', 'lr': 0.0008567677539105691, 'hidden_dim': 3, 'latent_dim': 5, 'mem_dim': 175}. Best is trial 0 with value: 1.039728169311632.
epoch_0_loss:  1.0546586234316813
epoch: 1
epoch_1_loss:  1.0545941718651368
…
epoch: 7
epoch_7_loss:  1.1837195739321134
epoch: 8
epoch_8_loss:  1.1836934030291764
epoch: 9
epoch_9_loss:  1.1836829125386714
epoch: 10
epoch_10_loss:  1.1837166831955142
epoch: 11
epoch_11_loss:  1.1837399214155633
epoch: 12
epoch_12_loss:  1.1837664058500312
epoch: 13
epoch_13_loss:  1.183744685859473
epoch: 14
epoch_14_loss:  … I 2022-11-13 18:57:08,333] Trial 6 finished with value: 1.1836956755407582 and parameters: {'optimizer': 'Adam', 'lr': 4.642446502686322e-05, 'hidden_dim': 3, 'latent_dim': 4, 'mem_dim': 132}. Best is trial 4 with value: 1.038919869705468.
build_Encoder(
  (FC_input): Linear(in_features=5, out_features=5, bias=True)
  (FC_input2): Linear(in_features=5, out_features=5, bias=True)
  (FC_mean): Linear(in_features=5, out_features=5, bias=True)
  (FC_var): Linear(in_features=5, out_features=5, bias=True)
  (LeakyReLU): LeakyReLU(negative_slope=0.01)
)
build_Decoder(
  (FC_hidden): Linear(in_features=5, out_features=5, bias=True)
  (FC_hidden2): Linear(in_features=5, out_features=5, bias=True)
  (FC_output): Linear(in_features=5, out_features=5, bias=True)
  (LeakyReLU): LeakyReLU(negative_slope=0.2)
)
epoch: 0
epoch_0_loss:  1.0515954937305727
epoch: 1
epoch_1_loss:  1.0515994751163231
epoch: 2
epoch_2_loss:  1.051600225510384
epoch: 3
epoch_3_loss:  1.0515775642612308
epoch: 4
epoch_4_loss:  1.0515478543456809
epoch: 5
epoch_5_loss:  1.0516118644243793
epoch: 6
epoch_6_loss:  1.0515950385722883
epoch: 7
epoch_7_loss:  1.0515864614764496
epoch: 8
epoch_8_loss:  1.0515961365820437
epoch: 9
epoch_9_loss:  1.051616300461807
epoch: 10
epoch_10_loss:  1.0515804665946347
epoch: 11
epoch_11_loss:  1.0515699129842704
epoch: 12
epoch_12_loss:  1.0515622355659902
epoch: 13
epoch_13_loss:  1.0515627395661584
epoch: 14
epoch_14_loss:  … build_Encoder(
  (FC_input): Linear(in_features=5, out_features=3, bias=True)
  (FC_input2): Linear(in_features=3, out_features=3, bias=True)
  (FC_mean): Linear(in_features=3, out_features=4, bias=True)
  (FC_var): Linear(in_features=3, out_features=4, bias=True)
  (LeakyReLU): LeakyReLU(negative_slope=0.01)
)
build_Decoder(
  (FC_hidden): Linear(in_features=4, out_features=3, bias=True)
  (FC_hidden2): Linear(in_features=3, out_features=3, bias=True)
  (FC_output): Linear(in_features=3, out_features=5, bias=True)
  (LeakyReLU): LeakyReLU(negative_slope=0.2)
)
epoch: 0
[I 2022-11-13 18:59:21,489] Trial 7 finished with value: 1.0515803854719004 and parameters: {'optimizer': 'Adam', 'lr': 2.4346048568239535e-05, 'hidden_dim': 5, 'latent_dim': 5, 'mem_dim': 45}. Best is trial 4 with value: 1.038919869705468.
epoch_0_loss:  1.0827746694071416
epoch: 1
epoch_1_loss:  1.0827979385358333
…
epoch: 7
epoch_7_loss:  1.1205837970406016
epoch: 8
epoch_8_loss:  1.1204497152055322
epoch: 9
epoch_9_loss:  1.1204979125576189
epoch: 10
epoch_10_loss:  1.1206304554315558
epoch: 11
epoch_11_loss:  1.120237584445689
epoch: 12
epoch_12_loss:  1.120537681089888
epoch: 13
epoch_13_loss:  1.120413784085828
epoch: 14
epoch_14_loss:  … I 2022-11-13 20:03:40,899] Trial 34 finished with value: 1.120572640575433 and parameters: {'optimizer': 'Adam', 'lr': 0.0007850027652991434, 'hidden_dim': 4, 'latent_dim': 5, 'mem_dim': 210}. Best is trial 15 with value: 1.0241701810728174.
build_Encoder(
  (FC_input): Linear(in_features=5, out_features=3, bias=True)
  (FC_input2): Linear(in_features=3, out_features=3, bias=True)
  (FC_mean): Linear(in_features=3, out_features=5, bias=True)
  (FC_var): Linear(in_features=3, out_features=5, bias=True)
  (LeakyReLU): LeakyReLU(negative_slope=0.01)
)
build_Decoder(
  (FC_hidden): Linear(in_features=5, out_features=3, bias=True)
  (FC_hidden2): Linear(in_features=3, out_features=3, bias=True)
  (FC_output): Linear(in_features=3, out_features=5, bias=True)
  (LeakyReLU): LeakyReLU(negative_slope=0.2)
)
epoch: 0
epoch_0_loss:  1.0972572932047475
epoch: 1
epoch_1_loss:  1.0972834850286686
epoch: 2
epoch_2_loss:  1.097236351802991
epoch: 3
epoch_3_loss:  1.0972289979271121
epoch: 4
epoch_4_loss:  1.0972645790573055
epoch: 5
epoch_5_loss:  1.0972763126649774
epoch: 6
epoch_6_loss:  1.09721587622787
epoch: 7
epoch_7_loss:  1.097252260681291
…
