…
epoch_985_loss:  7.971886927529244e-06
epoch_986_loss:  8.03221071391937e-06
epoch_987_loss:  8.088001901990046e-06
epoch_988_loss:  7.858869833071058e-06
epoch_989_loss:  7.851387328151403e-06
epoch_990_loss:  6.586762575483607e-06
epoch_991_loss:  7.50060776161736e-06
epoch_992_loss:  5.424389695515386e-06
epoch_993_loss:  7.385974417327547e-06
epoch_994_loss:  7.695915904672892e-06
epoch_995_loss:  7.3812593008984454e-06
epoch_996_loss:  7.254206399014208e-06
epoch_997_loss:  7.562416588509767e-06
epoch_998_loss:  6.055029171635085e-06
epoch_999_loss:  … parallel(
  (AE_encoder): Sequential(
    (0): Linear(in_features=5, out_features=3, bias=True)
    (1): ReLU()
  )
  (MemAE_encoder): Sequential(
    (0): Linear(in_features=5, out_features=3, bias=True)
    (1): ReLU()
  )
  (mem_rep): MemModule(
    (memory): MemoryUnit(mem_dim=149, fea_dim=True)
  )
  (VAE_Encoder): Encoder(
    (FC_input): Linear(in_features=5, out_features=4, bias=True)
    (FC_input2): Linear(in_features=4, out_features=4, bias=True)
    (FC_mean): Linear(in_features=4, out_features=3, bias=True)
    (FC_var): Linear(in_features=4, out_features=3, bias=True)
    (LeakyReLU): LeakyReLU(negative_slope=0.2)
  )
  (g_decoder): Linear(in_features=9, out_features=5, bias=True)
)
parallel(
  (AE_encoder): Sequential(
    (0): Linear(in_features=5, out_features=3, bias=True)
    (1): ReLU()
  )
  (MemAE_encoder): Sequential(
    (0): Linear(in_features=5, out_features=3, bias=True)
    (1): ReLU()
  )
  (mem_rep): MemModule(
    (memory): MemoryUnit(mem_dim=149, fea_dim=True)
  )
  (VAE_Encoder): Encoder(
    (FC_input): Linear(in_features=5, out_features=4, bias=True)
    (FC_input2): Linear(in_features=4, out_features=4, bias=True)
    (FC_mean): Linear(in_features=4, out_features=3, bias=True)
    (FC_var): Linear(in_features=4, out_features=3, bias=True)
    (LeakyReLU): LeakyReLU(negative_slope=0.2)
  )
  (g_decoder): Linear(in_features=9, out_features=5, bias=True)
)
MSE for integrated:  0.04528808787443585
RR for integrated:  0.9999233213937799
MAE for integrated:  0.0696080725531042
MAPE for integrated:  1.0361421174701928
parallel(
  (AE_encoder): Sequential(
    (0): Linear(in_features=5, out_features=3, bias=True)
    (1): ReLU()
  )
  (MemAE_encoder): Sequential(
    (0): Linear(in_features=5, out_features=3, bias=True)
    (1): ReLU()
  )
  (mem_rep): MemModule(
    (memory): MemoryUnit(mem_dim=149, fea_dim=True)
  )
  (VAE_Encoder): Encoder(
    (FC_input): Linear(in_features=5, out_features=4, bias=True)
    (FC_input2): Linear(in_features=4, out_features=4, bias=True)
    (FC_mean): Linear(in_features=4, out_features=3, bias=True)
    (FC_var): Linear(in_features=4, out_features=3, bias=True)
    (LeakyReLU): LeakyReLU(negative_slope=0.2)
  )
  (g_decoder): Linear(in_features=9, out_features=5, bias=True)
)
MAE is selected
epoch_0_loss:  1.012093366675592
epoch_1_loss:  0.7190393698845764
epoch_2_loss:  0.5146336330107936
epoch_3_loss:  0.46645508582656303
epoch_4_loss:  0.4119174066058367
epoch_5_loss:  0.346904417361186
epoch_6_loss:  0.311035097158189
epoch_7_loss:  0.29115610303913014
epoch_8_loss:  0.2777251725507774
epoch_9_loss:  0.26717339185600775
epoch_10_loss:  0.25743156134223816
…
epoch_700_loss:  0.03839462615233962
epoch_701_loss:  0.03836279146306474
epoch_702_loss:  0.03833472229347534
epoch_703_loss:  0.03831006839884577
epoch_704_loss:  0.03824850144090181
epoch_705_loss:  0.03823263803087009
epoch_706_loss:  0.03816522269386863
epoch_707_loss:  0.03814128956569415
epoch_708_loss:  0.03813040932656147
epoch_709_loss:  0.038139813386894685
epoch_710_loss:  0.03816232999464775
epoch_711_loss:  0.0381716670564066
epoch_712_loss:  0.03819659488445071
epoch_713_loss:  0.038211187410003525
epoch_714_loss:  0.03825736699253849
End of training
early stopping
[… MemAE(
  (encoder): Sequential(
    (0): Linear(in_features=5, out_features=3, bias=True)
    (1): ReLU()
  )
  (mem_rep): MemModule(
    (memory): MemoryUnit(mem_dim=149, fea_dim=True)
  )
  (decoder): Sequential(
    (0): Linear(in_features=3, out_features=5, bias=True)
  )
)
MemAE(
  (encoder): Sequential(
    (0): Linear(in_features=5, out_features=3, bias=True)
    (1): ReLU()
  )
  (mem_rep): MemModule(
    (memory): MemoryUnit(mem_dim=149, fea_dim=True)
  )
  (decoder): Sequential(
    (0): Linear(in_features=3, out_features=5, bias=True)
  )
)
MSE for MAE:  496.62443256330124
RR for MAE:  0.6819077726369169
MAE for MAE:  9.185884263626589
MAPE for MAE:  12.681480746808285
MemAE(
  (encoder): Sequential(
    (0): Linear(in_features=5, out_features=3, bias=True)
    (1): ReLU()
  )
  (mem_rep): MemModule(
    (memory): MemoryUnit(mem_dim=149, fea_dim=True)
  )
  (decoder): Sequential(
    (0): Linear(in_features=3, out_features=5, bias=True)
  )
)
AE is selected
epoch_0_loss:  0.7928642897248697
epoch_1_loss:  0.5331374132088108
epoch_2_loss:  0.45623501522128934
epoch_3_loss:  0.40984018596419747
epoch_4_loss:  0.31481600100264134
epoch_5_loss:  0.22351301214303848
epoch_6_loss:  0.1708115072605263
epoch_7_loss:  0.13565641776941484
epoch_8_loss:  0.1109166651447287
epoch_9_loss:  0.09366836753961491
…
epoch_984_loss:  0.037118393921724994
epoch_985_loss:  0.03711733806934637
epoch_986_loss:  0.03711626741205814
epoch_987_loss:  0.037115196620067396
epoch_988_loss:  0.037114147814281545
epoch_989_loss:  0.03711311298333081
epoch_990_loss:  0.03711209759443616
epoch_991_loss:  0.03711103317071203
epoch_992_loss:  0.03710999240980897
epoch_993_loss:  0.03710891564776563
epoch_994_loss:  0.037107869813712335
epoch_995_loss:  0.03710684302193579
epoch_996_loss:  0.03710578904072115
epoch_997_loss:  0.03710471780236691
epoch_998_loss:  0.037103657603031484
epoch_999_loss:  … base_AE(
  (encoder): Sequential(
    (0): Linear(in_features=5, out_features=3, bias=True)
    (1): ReLU()
  )
  (decoder): Sequential(
    (0): Linear(in_features=3, out_features=5, bias=True)
  )
)
base_AE(
  (encoder): Sequential(
    (0): Linear(in_features=5, out_features=3, bias=True)
    (1): ReLU()
  )
  (decoder): Sequential(
    (0): Linear(in_features=3, out_features=5, bias=True)
  )
)
MSE for DAE:  413.873270121461
RR for DAE:  0.6776658019765404
MAE for DAE:  8.620458178824089
MAPE for DAE:  19.656814087562925
base_AE(
  (encoder): Sequential(
    (0): Linear(in_features=5, out_features=3, bias=True)
    (1): ReLU()
  )
  (decoder): Sequential(
    (0): Linear(in_features=3, out_features=5, bias=True)
  )
)
VAE is selected
Encoder(
  (FC_input): Linear(in_features=5, out_features=4, bias=True)
  (FC_input2): Linear(in_features=4, out_features=4, bias=True)
  (FC_mean): Linear(in_features=4, out_features=3, bias=True)
  (FC_var): Linear(in_features=4, out_features=3, bias=True)
  (LeakyReLU): LeakyReLU(negative_slope=0.2)
)
Decoder(
  (FC_hidden): Linear(in_features=3, out_features=4, bias=True)
  (FC_hidden2): Linear(in_features=4, out_features=4, bias=True)
  (FC_output): Linear(in_features=4, out_features=5, bias=True)
  (LeakyReLU): LeakyReLU(negative_slope=0.2)
)
epoch_0_loss:  1.0242226327169224
epoch_1_loss:  0.6598532664167998
epoch_2_loss:  0.4590917250626071
epoch_3_loss:  0.42249309283499176
epoch_4_loss:  0.40201018845058195
epoch_5_loss:  0.3827922625117267
epoch_6_loss:  0.3637011514232554
epoch_7_loss:  0.33965045683142253
epoch_8_loss:  0.31533094653725746
epoch_9_loss:  0.29375060856677054
…
epoch_196_loss:  0.01886799146421705
epoch_197_loss:  0.018798589878417527
epoch_198_loss:  0.0186971878014382
epoch_199_loss:  0.018719295834335167
epoch_200_loss:  0.018726980527285803
epoch_201_loss:  0.01875052061151086
epoch_202_loss:  0.01875989982007174
epoch_203_loss:  0.018756657988222025
epoch_204_loss:  0.018794533205314896
epoch_205_loss:  0.018838725689302067
epoch_206_loss:  0.018861034735171475
epoch_207_loss:  0.01888677201605469
epoch_208_loss:  0.018896823970014784
epoch_209_loss:  0.018912795845965162
End of training
early stopping
[… VAE(
  (Encoder): Encoder(
    (FC_input): Linear(in_features=5, out_features=4, bias=True)
    (FC_input2): Linear(in_features=4, out_features=4, bias=True)
    (FC_mean): Linear(in_features=4, out_features=3, bias=True)
    (FC_var): Linear(in_features=4, out_features=3, bias=True)
    (LeakyReLU): LeakyReLU(negative_slope=0.2)
  )
  (Decoder): Decoder(
    (FC_hidden): Linear(in_features=3, out_features=4, bias=True)
    (FC_hidden2): Linear(in_features=4, out_features=4, bias=True)
    (FC_output): Linear(in_features=4, out_features=5, bias=True)
    (LeakyReLU): LeakyReLU(negative_slope=0.2)
  )
)
VAE(
  (Encoder): Encoder(
    (FC_input): Linear(in_features=5, out_features=4, bias=True)
    (FC_input2): Linear(in_features=4, out_features=4, bias=True)
    (FC_mean): Linear(in_features=4, out_features=3, bias=True)
    (FC_var): Linear(in_features=4, out_features=3, bias=True)
    (LeakyReLU): LeakyReLU(negative_slope=0.2)
  )
  (Decoder): Decoder(
    (FC_hidden): Linear(in_features=3, out_features=4, bias=True)
    (FC_hidden2): Linear(in_features=4, out_features=4, bias=True)
    (FC_output): Linear(in_features=4, out_features=5, bias=True)
    (LeakyReLU): LeakyReLU(negative_slope=0.2)
  )
)
MSE for VAE:  117.82240439543914
RR for VAE:  0.4692717283806688
MAE for VAE:  5.127566949105794
MAPE for VAE:  9.309449119511939
VAE(
  (Encoder): Encoder(
    (FC_input): Linear(in_features=5, out_features=4, bias=True)
    (FC_input2): Linear(in_features=4, out_features=4, bias=True)
    (FC_mean): Linear(in_features=4, out_features=3, bias=True)
    (FC_var): Linear(in_features=4, out_features=3, bias=True)
    (LeakyReLU): LeakyReLU(negative_slope=0.2)
  )
  (Decoder): Decoder(
    (FC_hidden): Linear(in_features=3, out_features=4, bias=True)
    (FC_hidden2): Linear(in_features=4, out_features=4, bias=True)
    (FC_output): Linear(in_features=4, out_features=5, bias=True)
    (LeakyReLU): LeakyReLU(negative_slope=0.2)
  )
)
MVAE is selected
epoch_0_loss:  0.9845419674146805
epoch_1_loss:  0.5916320930994803
epoch_2_loss:  0.5223106811843404
epoch_3_loss:  0.4972718099535901
epoch_4_loss:  0.4809550297845836
epoch_5_loss:  0.46492114119711314
epoch_6_loss:  0.4274090053946903
epoch_7_loss:  0.37200401539030714
epoch_8_loss:  0.3305023819998635
…
epoch_984_loss:  0.03520489482601055
epoch_985_loss:  0.03514145999177482
epoch_986_loss:  0.03518304181060848
epoch_987_loss:  0.03518093105941223
epoch_988_loss:  0.035181367969660315
epoch_989_loss:  0.03517430396661245
epoch_990_loss:  0.03516717460905915
epoch_991_loss:  0.03516478087373167
epoch_992_loss:  0.03516267720501899
epoch_993_loss:  0.03515483181460069
epoch_994_loss:  0.03514758652017836
epoch_995_loss:  0.035149072328816734
epoch_996_loss:  0.035142655805164326
epoch_997_loss:  0.03513249934025881
epoch_998_loss:  0.03518362047074088
epoch_999_loss:  … MVAE(
  (Encoder): Encoder(
    (FC_input): Linear(in_features=5, out_features=4, bias=True)
    (FC_input2): Linear(in_features=4, out_features=4, bias=True)
    (FC_mean): Linear(in_features=4, out_features=3, bias=True)
    (FC_var): Linear(in_features=4, out_features=3, bias=True)
    (LeakyReLU): LeakyReLU(negative_slope=0.2)
  )
  (decoder): Sequential(
    (0): Linear(in_features=3, out_features=5, bias=True)
  )
  (mem_rep): MemModule(
    (memory): MemoryUnit(mem_dim=149, fea_dim=True)
  )
)
MVAE(
  (Encoder): Encoder(
    (FC_input): Linear(in_features=5, out_features=4, bias=True)
    (FC_input2): Linear(in_features=4, out_features=4, bias=True)
    (FC_mean): Linear(in_features=4, out_features=3, bias=True)
    (FC_var): Linear(in_features=4, out_features=3, bias=True)
    (LeakyReLU): LeakyReLU(negative_slope=0.2)
  )
  (decoder): Sequential(
    (0): Linear(in_features=3, out_features=5, bias=True)
  )
  (mem_rep): MemModule(
    (memory): MemoryUnit(mem_dim=149, fea_dim=True)
  )
)
MSE for MVAE:  456.4206201805555
RR for MVAE:  0.44683146622170566
MAE for MVAE:  8.884627746202709
MAPE for MVAE:  19.22792136142543
MVAE(
  (Encoder): Encoder(
    (FC_input): Linear(in_features=5, out_features=4, bias=True)
    (FC_input2): Linear(in_features=4, out_features=4, bias=True)
    (FC_mean): Linear(in_features=4, out_features=3, bias=True)
    (FC_var): Linear(in_features=4, out_features=3, bias=True)
    (LeakyReLU): LeakyReLU(negative_slope=0.2)
  )
  (decoder): Sequential(
    (0): Linear(in_features=3, out_features=5, bias=True)
  )
  (mem_rep): MemModule(
    (memory): MemoryUnit(mem_dim=149, fea_dim=True)
  )
)

Process finished with exit code 0
