…
epoch_54_loss:  0.0004262140113589787
epoch_55_loss:  0.0004112335179746236
epoch_56_loss:  0.0004015906246668703
epoch_57_loss:  0.0003904003856745335
epoch_58_loss:  0.0003832845209516599
epoch_59_loss:  0.00037200650913230487
epoch_60_loss:  0.0003574297305121739
epoch_61_loss:  0.0003418510416380648
epoch_62_loss:  0.00033532256175615184
epoch_63_loss:  0.0003246790149811131
epoch_64_loss:  0.0003079616184732462
epoch_65_loss:  0.0002907016133319199
epoch_66_loss:  0.0002762454050363475
epoch_67_loss:  0.00026740071921508055
epoch_68_loss:  0.00026002021801044896
epoch_69_loss:  … parallel(
  (AE_encoder): Sequential(
    (0): Linear(in_features=5, out_features=4, bias=True)
    (1): ReLU()
  )
  (MemAE_encoder): Sequential(
    (0): Linear(in_features=5, out_features=4, bias=True)
    (1): ReLU()
  )
  (mem_rep): MemModule(
    (memory): MemoryUnit(mem_dim=149, fea_dim=True)
  )
  (VAE_Encoder): Encoder(
    (FC_input): Linear(in_features=5, out_features=4, bias=True)
    (FC_input2): Linear(in_features=4, out_features=4, bias=True)
    (FC_mean): Linear(in_features=4, out_features=4, bias=True)
    (FC_var): Linear(in_features=4, out_features=4, bias=True)
    (LeakyReLU): LeakyReLU(negative_slope=0.2)
  )
  (g_decoder): Linear(in_features=12, out_features=5, bias=True)
)
parallel(
  (AE_encoder): Sequential(
    (0): Linear(in_features=5, out_features=4, bias=True)
    (1): ReLU()
  )
  (MemAE_encoder): Sequential(
    (0): Linear(in_features=5, out_features=4, bias=True)
    (1): ReLU()
  )
  (mem_rep): MemModule(
    (memory): MemoryUnit(mem_dim=149, fea_dim=True)
  )
  (VAE_Encoder): Encoder(
    (FC_input): Linear(in_features=5, out_features=4, bias=True)
    (FC_input2): Linear(in_features=4, out_features=4, bias=True)
    (FC_mean): Linear(in_features=4, out_features=4, bias=True)
    (FC_var): Linear(in_features=4, out_features=4, bias=True)
    (LeakyReLU): LeakyReLU(negative_slope=0.2)
  )
  (g_decoder): Linear(in_features=12, out_features=5, bias=True)
)
MSE for integrated:  0.5590411385801639
RR for integrated:  0.999759762897306
MAE for integrated:  0.2902352834286442
MAPE for integrated:  1.2852068947788409
MAE is selected
epoch_0_loss:  0.8404444305192172
epoch_1_loss:  0.49808911665721434
epoch_2_loss:  0.4439821403643267
epoch_3_loss:  0.37170284667591014
epoch_4_loss:  0.31258947913266577
epoch_5_loss:  0.29217050421307655
…
epoch_54_loss:  0.006758412961820557
epoch_55_loss:  0.006756967636642628
epoch_56_loss:  0.006755638393331613
epoch_57_loss:  0.006754367115613519
epoch_58_loss:  0.0067531785812249235
epoch_59_loss:  0.006752066510144627
epoch_60_loss:  0.006751018639566838
epoch_61_loss:  0.006750036209430858
epoch_62_loss:  0.006749104115160092
epoch_63_loss:  0.0067482233356747435
epoch_64_loss:  0.006747386679335069
epoch_65_loss:  0.006746603340416989
epoch_66_loss:  0.006745845293273485
epoch_67_loss:  0.006745130775610094
epoch_68_loss:  0.006744440347007739
epoch_69_loss:  … base_AE(
  (encoder): Sequential(
    (0): Linear(in_features=5, out_features=4, bias=True)
    (1): ReLU()
  )
  (decoder): Sequential(
    (0): Linear(in_features=4, out_features=5, bias=True)
  )
)
base_AE(
  (encoder): Sequential(
    (0): Linear(in_features=5, out_features=4, bias=True)
    (1): ReLU()
  )
  (decoder): Sequential(
    (0): Linear(in_features=4, out_features=5, bias=True)
  )
)
MSE for DAE:  1.8568592466437608
RR for DAE:  0.9915203366451371
MAE for DAE:  0.7817306963376746
MAPE for DAE:  8.276549184699649
VAE is selected
Encoder(
  (FC_input): Linear(in_features=5, out_features=4, bias=True)
  (FC_input2): Linear(in_features=4, out_features=4, bias=True)
  (FC_mean): Linear(in_features=4, out_features=4, bias=True)
  (FC_var): Linear(in_features=4, out_features=4, bias=True)
  (LeakyReLU): LeakyReLU(negative_slope=0.2)
)
Decoder(
  (FC_hidden): Linear(in_features=4, out_features=4, bias=True)
  (FC_hidden2): Linear(in_features=4, out_features=4, bias=True)
  (FC_output): Linear(in_features=4, out_features=5, bias=True)
  (LeakyReLU): LeakyReLU(negative_slope=0.2)
)
epoch_0_loss:  1.0399702188590956
epoch_1_loss:  0.6221822953369084
epoch_2_loss:  0.35450524484311774
epoch_3_loss:  0.3034654462509727
epoch_4_loss:  0.26869551593721935
epoch_5_loss:  0.24269981061955803
epoch_6_loss:  0.2235501032974307
epoch_7_loss:  0.20941829387800695
epoch_8_loss:  0.1976270130761471
epoch_9_loss:  0.18833210342147222
…
epoch_54_loss:  0.07213201304238963
epoch_55_loss:  0.06991258571618093
epoch_56_loss:  0.06737719271521127
epoch_57_loss:  0.06468481515693132
epoch_58_loss:  0.061963775472939166
epoch_59_loss:  0.05920303781869486
epoch_60_loss:  0.05650746015391334
epoch_61_loss:  0.05397169588816292
epoch_62_loss:  0.051486082365697405
epoch_63_loss:  0.0491091069620587
epoch_64_loss:  0.04683250535758866
epoch_65_loss:  0.04472459149305354
epoch_66_loss:  0.04279666290477418
epoch_67_loss:  0.04117654854449695
epoch_68_loss:  0.039594559246202685
epoch_69_loss:  … VAE(
  (Encoder): Encoder(
    (FC_input): Linear(in_features=5, out_features=4, bias=True)
    (FC_input2): Linear(in_features=4, out_features=4, bias=True)
    (FC_mean): Linear(in_features=4, out_features=4, bias=True)
    (FC_var): Linear(in_features=4, out_features=4, bias=True)
    (LeakyReLU): LeakyReLU(negative_slope=0.2)
  )
  (Decoder): Decoder(
    (FC_hidden): Linear(in_features=4, out_features=4, bias=True)
    (FC_hidden2): Linear(in_features=4, out_features=4, bias=True)
    (FC_output): Linear(in_features=4, out_features=5, bias=True)
    (LeakyReLU): LeakyReLU(negative_slope=0.2)
  )
)
VAE(
  (Encoder): Encoder(
    (FC_input): Linear(in_features=5, out_features=4, bias=True)
    (FC_input2): Linear(in_features=4, out_features=4, bias=True)
    (FC_mean): Linear(in_features=4, out_features=4, bias=True)
    (FC_var): Linear(in_features=4, out_features=4, bias=True)
    (LeakyReLU): LeakyReLU(negative_slope=0.2)
  )
  (Decoder): Decoder(
    (FC_hidden): Linear(in_features=4, out_features=4, bias=True)
    (FC_hidden2): Linear(in_features=4, out_features=4, bias=True)
    (FC_output): Linear(in_features=4, out_features=5, bias=True)
    (LeakyReLU): LeakyReLU(negative_slope=0.2)
  )
)
MSE for VAE:  270.91847863578624
RR for VAE:  0.6122528709609221
MAE for VAE:  7.395802360656764
MAPE for VAE:  14.38531618067067
MVAE is selected
Encoder(
  (FC_input): Linear(in_features=5, out_features=4, bias=True)
  (FC_input2): Linear(in_features=4, out_features=4, bias=True)
  (FC_mean): Linear(in_features=4, out_features=4, bias=True)
  (FC_var): Linear(in_features=4, out_features=4, bias=True)
  (LeakyReLU): LeakyReLU(negative_slope=0.2)
)
Decoder(
  (FC_hidden): Linear(in_features=4, out_features=4, bias=True)
  (FC_hidden2): Linear(in_features=4, out_features=4, bias=True)
  (FC_output): Linear(in_features=4, out_features=5, bias=True)
  (LeakyReLU): LeakyReLU(negative_slope=0.2)
)
epoch_0_loss:  1.0084380205197494
epoch_1_loss:  0.7702135055276242
epoch_2_loss:  0.484237644494458
epoch_3_loss:  0.4507023104858613
epoch_4_loss:  0.4408289642075887
epoch_5_loss:  0.4340999731171988
epoch_6_loss:  0.4292393306305646
epoch_7_loss:  0.4251716397573923
epoch_8_loss:  0.4212981853616841
epoch_9_loss:  0.4170242587998468
…
epoch_54_loss:  0.03756889629728236
epoch_55_loss:  0.03612260508780014
epoch_56_loss:  0.03497530758888377
epoch_57_loss:  0.03403999213880488
epoch_58_loss:  0.033277125302605695
epoch_59_loss:  0.03260745177129182
epoch_60_loss:  0.03203094023958191
epoch_61_loss:  0.031517019787131666
epoch_62_loss:  0.031075896842706948
epoch_63_loss:  0.03065619842553136
epoch_64_loss:  0.03028478505760237
epoch_65_loss:  0.02996926069870017
epoch_66_loss:  0.029786058916410136
epoch_67_loss:  0.029419348577856174
epoch_68_loss:  0.029232675534021618
epoch_69_loss:  … MVAE(
  (Encoder): Encoder(
    (FC_input): Linear(in_features=5, out_features=4, bias=True)
    (FC_input2): Linear(in_features=4, out_features=4, bias=True)
    (FC_mean): Linear(in_features=4, out_features=4, bias=True)
    (FC_var): Linear(in_features=4, out_features=4, bias=True)
    (LeakyReLU): LeakyReLU(negative_slope=0.2)
  )
  (Decoder): Decoder(
    (FC_hidden): Linear(in_features=4, out_features=4, bias=True)
    (FC_hidden2): Linear(in_features=4, out_features=4, bias=True)
    (FC_output): Linear(in_features=4, out_features=5, bias=True)
    (LeakyReLU): LeakyReLU(negative_slope=0.2)
  )
  (mem_rep): MemModule(
    (memory): MemoryUnit(mem_dim=149, fea_dim=True)
  )
)
MVAE(
  (Encoder): Encoder(
    (FC_input): Linear(in_features=5, out_features=4, bias=True)
    (FC_input2): Linear(in_features=4, out_features=4, bias=True)
    (FC_mean): Linear(in_features=4, out_features=4, bias=True)
    (FC_var): Linear(in_features=4, out_features=4, bias=True)
    (LeakyReLU): LeakyReLU(negative_slope=0.2)
  )
  (Decoder): Decoder(
    (FC_hidden): Linear(in_features=4, out_features=4, bias=True)
    (FC_hidden2): Linear(in_features=4, out_features=4, bias=True)
    (FC_output): Linear(in_features=4, out_features=5, bias=True)
    (LeakyReLU): LeakyReLU(negative_slope=0.2)
  )
  (mem_rep): MemModule(
    (memory): MemoryUnit(mem_dim=149, fea_dim=True)
  )
)
MSE for MVAE:  378.5545584283403
RR for MVAE:  0.5248957542714042
MAE for MVAE:  8.211202639361195
MAPE for MVAE:  16.02371959060158

Process finished with exit code 0
