…
epoch_285_loss:  0.0014917773001194585
epoch_286_loss:  0.0014808449846945052
epoch_287_loss:  0.0014699669533947924
epoch_288_loss:  0.0014583197074645772
epoch_289_loss:  0.0014481800329044562
epoch_290_loss:  0.0014379311465468224
epoch_291_loss:  0.0014267583391232407
epoch_292_loss:  0.0014157830222014905
epoch_293_loss:  0.001405009493490706
epoch_294_loss:  0.0013936020136599934
epoch_295_loss:  0.0013812348626881855
epoch_296_loss:  0.0013701455725561578
epoch_297_loss:  0.0013582724386162121
epoch_298_loss:  0.0013467717268180537
epoch_299_loss:  … parallel(
  (AE_encoder): Sequential(
    (0): Linear(in_features=5, out_features=3, bias=True)
    (1): ReLU()
  )
  (MemAE_encoder): Sequential(
    (0): Linear(in_features=5, out_features=3, bias=True)
    (1): ReLU()
  )
  (mem_rep): MemModule(
    (memory): MemoryUnit(mem_dim=149, fea_dim=True)
  )
  (VAE_Encoder): Encoder(
    (FC_input): Linear(in_features=5, out_features=4, bias=True)
    (FC_input2): Linear(in_features=4, out_features=4, bias=True)
    (FC_mean): Linear(in_features=4, out_features=3, bias=True)
    (FC_var): Linear(in_features=4, out_features=3, bias=True)
    (LeakyReLU): LeakyReLU(negative_slope=0.2)
  )
  (g_decoder): Linear(in_features=9, out_features=5, bias=True)
)
parallel(
  (AE_encoder): Sequential(
    (0): Linear(in_features=5, out_features=3, bias=True)
    (1): ReLU()
  )
  (MemAE_encoder): Sequential(
    (0): Linear(in_features=5, out_features=3, bias=True)
    (1): ReLU()
  )
  (mem_rep): MemModule(
    (memory): MemoryUnit(mem_dim=149, fea_dim=True)
  )
  (VAE_Encoder): Encoder(
    (FC_input): Linear(in_features=5, out_features=4, bias=True)
    (FC_input2): Linear(in_features=4, out_features=4, bias=True)
    (FC_mean): Linear(in_features=4, out_features=3, bias=True)
    (FC_var): Linear(in_features=4, out_features=3, bias=True)
    (LeakyReLU): LeakyReLU(negative_slope=0.2)
  )
  (g_decoder): Linear(in_features=9, out_features=5, bias=True)
)
MSE for integrated:  0.27391080662746153
RR for integrated:  0.9993196736477102
MAE for integrated:  0.27903138359446167
MAPE for integrated:  2.1873377320328196
parallel(
  (AE_encoder): Sequential(
    (0): Linear(in_features=5, out_features=3, bias=True)
    (1): ReLU()
  )
  (MemAE_encoder): Sequential(
    (0): Linear(in_features=5, out_features=3, bias=True)
    (1): ReLU()
  )
  (mem_rep): MemModule(
    (memory): MemoryUnit(mem_dim=149, fea_dim=True)
  )
  (VAE_Encoder): Encoder(
    (FC_input): Linear(in_features=5, out_features=4, bias=True)
    (FC_input2): Linear(in_features=4, out_features=4, bias=True)
    (FC_mean): Linear(in_features=4, out_features=3, bias=True)
    (FC_var): Linear(in_features=4, out_features=3, bias=True)
    (LeakyReLU): LeakyReLU(negative_slope=0.2)
  )
  (g_decoder): Linear(in_features=9, out_features=5, bias=True)
)
MAE is selected
epoch_0_loss:  1.0667031821648636
epoch_1_loss:  1.0539220066348534
epoch_2_loss:  1.041123307138815
epoch_3_loss:  1.0279885342703807
epoch_4_loss:  1.0139318727324362
epoch_5_loss:  0.9983683562265383
epoch_6_loss:  0.9808040307041241
epoch_7_loss:  0.960889534348196
epoch_8_loss:  0.9384504148544485
epoch_9_loss:  0.9145794088196327
epoch_10_loss:  0.8896746619733994
…
epoch_284_loss:  0.0633327698527163
epoch_285_loss:  0.06331025983202751
epoch_286_loss:  0.06329242603941047
epoch_287_loss:  0.06327167112430382
epoch_288_loss:  0.06324720927388845
epoch_289_loss:  0.06322836542226408
epoch_290_loss:  0.06321004977357896
epoch_291_loss:  0.06319037320994408
epoch_292_loss:  0.06317264805735828
epoch_293_loss:  0.06315567906561721
epoch_294_loss:  0.06313960656895398
epoch_295_loss:  0.06312140749324731
epoch_296_loss:  0.06310403236342518
epoch_297_loss:  0.0630916924113533
epoch_298_loss:  0.0630765688436465
epoch_299_loss:  … MemAE(
  (encoder): Sequential(
    (0): Linear(in_features=5, out_features=3, bias=True)
    (1): ReLU()
  )
  (mem_rep): MemModule(
    (memory): MemoryUnit(mem_dim=149, fea_dim=True)
  )
  (decoder): Sequential(
    (0): Linear(in_features=3, out_features=5, bias=True)
  )
)
MemAE(
  (encoder): Sequential(
    (0): Linear(in_features=5, out_features=3, bias=True)
    (1): ReLU()
  )
  (mem_rep): MemModule(
    (memory): MemoryUnit(mem_dim=149, fea_dim=True)
  )
  (decoder): Sequential(
    (0): Linear(in_features=3, out_features=5, bias=True)
  )
)
MSE for MAE:  284.2620147024908
RR for MAE:  0.9294588507240361
MAE for MAE:  6.4921610897991
MAPE for MAE:  15.408754094826033
MemAE(
  (encoder): Sequential(
    (0): Linear(in_features=5, out_features=3, bias=True)
    (1): ReLU()
  )
  (mem_rep): MemModule(
    (memory): MemoryUnit(mem_dim=149, fea_dim=True)
  )
  (decoder): Sequential(
    (0): Linear(in_features=3, out_features=5, bias=True)
  )
)
AE is selected
epoch_0_loss:  1.348618320285472
epoch_1_loss:  1.248034640812553
epoch_2_loss:  1.1594415051787423
epoch_3_loss:  1.080994111306197
epoch_4_loss:  1.0106982503737836
epoch_5_loss:  0.9470053352248509
epoch_6_loss:  0.8886719179995392
epoch_7_loss:  0.8355341962968822
epoch_8_loss:  0.7872028874041254
epoch_9_loss:  0.7425632537279963
epoch_10_loss:  0.7009544138516813
…
epoch_284_loss:  0.06194798920863212
epoch_285_loss:  0.06194256158386913
epoch_286_loss:  0.06193723348846383
epoch_287_loss:  0.06193194892403624
epoch_288_loss:  0.06192676717365336
epoch_289_loss:  0.061921731502051575
epoch_290_loss:  0.06191670949750417
epoch_291_loss:  0.06191184624586873
epoch_292_loss:  0.06190699095954709
epoch_293_loss:  0.061902217197361414
epoch_294_loss:  0.06189756721128697
epoch_295_loss:  0.06189301050886211
epoch_296_loss:  0.061888495383934525
epoch_297_loss:  0.06188408223256436
epoch_298_loss:  0.06187974439407678
epoch_299_loss:  … base_AE(
  (encoder): Sequential(
    (0): Linear(in_features=5, out_features=3, bias=True)
    (1): ReLU()
  )
  (decoder): Sequential(
    (0): Linear(in_features=3, out_features=5, bias=True)
  )
)
base_AE(
  (encoder): Sequential(
    (0): Linear(in_features=5, out_features=3, bias=True)
    (1): ReLU()
  )
  (decoder): Sequential(
    (0): Linear(in_features=3, out_features=5, bias=True)
  )
)
MSE for DAE:  274.5249509900301
RR for DAE:  0.9304359692346044
MAE for DAE:  6.401412494097631
MAPE for DAE:  10.61291334921962
base_AE(
  (encoder): Sequential(
    (0): Linear(in_features=5, out_features=3, bias=True)
    (1): ReLU()
  )
  (decoder): Sequential(
    (0): Linear(in_features=3, out_features=5, bias=True)
  )
)
VAE is selected
Encoder(
  (FC_input): Linear(in_features=5, out_features=4, bias=True)
  (FC_input2): Linear(in_features=4, out_features=4, bias=True)
  (FC_mean): Linear(in_features=4, out_features=3, bias=True)
  (FC_var): Linear(in_features=4, out_features=3, bias=True)
  (LeakyReLU): LeakyReLU(negative_slope=0.2)
)
Decoder(
  (FC_hidden): Linear(in_features=3, out_features=4, bias=True)
  (FC_hidden2): Linear(in_features=4, out_features=4, bias=True)
  (FC_output): Linear(in_features=4, out_features=5, bias=True)
  (LeakyReLU): LeakyReLU(negative_slope=0.2)
)
epoch_0_loss:  1.1422533001333075
epoch_1_loss:  1.09818782911306
epoch_2_loss:  1.0698921794046736
epoch_3_loss:  1.049261534628312
epoch_4_loss:  1.0354585009773216
epoch_5_loss:  1.024564864339449
epoch_6_loss:  1.0164836429961595
epoch_7_loss:  1.0059944378554553
epoch_8_loss:  0.9943030680709356
epoch_9_loss:  0.9782201506765434
…
epoch_284_loss:  0.20888140339262348
epoch_285_loss:  0.20870519610280547
epoch_286_loss:  0.20851933307561504
epoch_287_loss:  0.20831287894063868
epoch_288_loss:  0.20819255212246704
epoch_289_loss:  0.20797829122821312
epoch_290_loss:  0.20784489810675583
epoch_291_loss:  0.20763675084195596
epoch_292_loss:  0.20749687577384804
epoch_293_loss:  0.20730668234308938
epoch_294_loss:  0.207152337345374
epoch_295_loss:  0.20696891969145012
epoch_296_loss:  0.20679866299534325
epoch_297_loss:  0.20665498476500535
epoch_298_loss:  0.20648379800757685
epoch_299_loss:  … VAE(
  (Encoder): Encoder(
    (FC_input): Linear(in_features=5, out_features=4, bias=True)
    (FC_input2): Linear(in_features=4, out_features=4, bias=True)
    (FC_mean): Linear(in_features=4, out_features=3, bias=True)
    (FC_var): Linear(in_features=4, out_features=3, bias=True)
    (LeakyReLU): LeakyReLU(negative_slope=0.2)
  )
  (Decoder): Decoder(
    (FC_hidden): Linear(in_features=3, out_features=4, bias=True)
    (FC_hidden2): Linear(in_features=4, out_features=4, bias=True)
    (FC_output): Linear(in_features=4, out_features=5, bias=True)
    (LeakyReLU): LeakyReLU(negative_slope=0.2)
  )
)
VAE(
  (Encoder): Encoder(
    (FC_input): Linear(in_features=5, out_features=4, bias=True)
    (FC_input2): Linear(in_features=4, out_features=4, bias=True)
    (FC_mean): Linear(in_features=4, out_features=3, bias=True)
    (FC_var): Linear(in_features=4, out_features=3, bias=True)
    (LeakyReLU): LeakyReLU(negative_slope=0.2)
  )
  (Decoder): Decoder(
    (FC_hidden): Linear(in_features=3, out_features=4, bias=True)
    (FC_hidden2): Linear(in_features=4, out_features=4, bias=True)
    (FC_output): Linear(in_features=4, out_features=5, bias=True)
    (LeakyReLU): LeakyReLU(negative_slope=0.2)
  )
)
MSE for VAE:  338.37207072325447
RR for VAE:  0.7331502949600408
MAE for VAE:  8.031952945046806
MAPE for VAE:  16.586902400215685
VAE(
  (Encoder): Encoder(
    (FC_input): Linear(in_features=5, out_features=4, bias=True)
    (FC_input2): Linear(in_features=4, out_features=4, bias=True)
    (FC_mean): Linear(in_features=4, out_features=3, bias=True)
    (FC_var): Linear(in_features=4, out_features=3, bias=True)
    (LeakyReLU): LeakyReLU(negative_slope=0.2)
  )
  (Decoder): Decoder(
    (FC_hidden): Linear(in_features=3, out_features=4, bias=True)
    (FC_hidden2): Linear(in_features=4, out_features=4, bias=True)
    (FC_output): Linear(in_features=4, out_features=5, bias=True)
    (LeakyReLU): LeakyReLU(negative_slope=0.2)
  )
)
MVAE is selected
epoch_0_loss:  1.1642485500183875
epoch_1_loss:  1.1473872288059226
epoch_2_loss:  1.1309383649195257
epoch_3_loss:  1.112486936035044
epoch_4_loss:  1.0954172262596176
epoch_5_loss:  1.074676772320618
epoch_6_loss:  1.0513770818676917
epoch_7_loss:  1.0199830809549633
epoch_8_loss:  0.9755624404736698
…
epoch_284_loss:  0.13914278413966766
epoch_285_loss:  0.13708515884772343
epoch_286_loss:  0.1349844986639683
epoch_287_loss:  0.13294961516883208
epoch_288_loss:  0.13091021225549648
epoch_289_loss:  0.12896000334550314
epoch_290_loss:  0.12707194607212072
epoch_291_loss:  0.12525666692198126
epoch_292_loss:  0.12347625099089114
epoch_293_loss:  0.12177657079152061
epoch_294_loss:  0.12014881419143202
epoch_295_loss:  0.11857917239146115
epoch_296_loss:  0.11705001761025911
epoch_297_loss:  0.11563213600572449
epoch_298_loss:  0.11425836417289459
epoch_299_loss:  … MVAE(
  (Encoder): Encoder(
    (FC_input): Linear(in_features=5, out_features=4, bias=True)
    (FC_input2): Linear(in_features=4, out_features=4, bias=True)
    (FC_mean): Linear(in_features=4, out_features=3, bias=True)
    (FC_var): Linear(in_features=4, out_features=3, bias=True)
    (LeakyReLU): LeakyReLU(negative_slope=0.2)
  )
  (decoder): Sequential(
    (0): Linear(in_features=3, out_features=5, bias=True)
  )
  (mem_rep): MemModule(
    (memory): MemoryUnit(mem_dim=149, fea_dim=True)
  )
)
MVAE(
  (Encoder): Encoder(
    (FC_input): Linear(in_features=5, out_features=4, bias=True)
    (FC_input2): Linear(in_features=4, out_features=4, bias=True)
    (FC_mean): Linear(in_features=4, out_features=3, bias=True)
    (FC_var): Linear(in_features=4, out_features=3, bias=True)
    (LeakyReLU): LeakyReLU(negative_slope=0.2)
  )
  (decoder): Sequential(
    (0): Linear(in_features=3, out_features=5, bias=True)
  )
  (mem_rep): MemModule(
    (memory): MemoryUnit(mem_dim=149, fea_dim=True)
  )
)
MSE for MVAE:  393.8235815673998
RR for MVAE:  0.8581094636073378
MAE for MVAE:  7.686615049946416
MAPE for MVAE:  9.875812742510007
MVAE(
  (Encoder): Encoder(
    (FC_input): Linear(in_features=5, out_features=4, bias=True)
    (FC_input2): Linear(in_features=4, out_features=4, bias=True)
    (FC_mean): Linear(in_features=4, out_features=3, bias=True)
    (FC_var): Linear(in_features=4, out_features=3, bias=True)
    (LeakyReLU): LeakyReLU(negative_slope=0.2)
  )
  (decoder): Sequential(
    (0): Linear(in_features=3, out_features=5, bias=True)
  )
  (mem_rep): MemModule(
    (memory): MemoryUnit(mem_dim=149, fea_dim=True)
  )
)

Process finished with exit code 0
